final-pipeline/master/models/mfcc-run1.tflite (tflite, 546952 bytes, 10 tensors)

deep_learning_classifier/output/BiasAdd/ReadVariableOp/resource f4 [5]
-0.0039073117 -0.013810777 0.0041716015 0.016808001 -0.007819185
00000000: e808 80bb 9946 62bc eeb1 883b efb0 893c
00000010: 0a1c 00bc

deep_learning_classifier/dense-2/BiasAdd/ReadVariableOp/resource f4 [32]
-0.0060051302 -0.0006422668 -0.009931749 -0.012083776 -0.0048851026 0.0070258956 -0.0064214948 -0.013131825
-0.0066723973 -0.0051825894 -0.006840953 -0.006215475 0.020500474 0.017383728 0.019786548 -0.0042823455
-0.008000744 -0.007054237 0.007350032 -0.009260069 0.007717192 0.0 0.0 -0.0056829713
-0.0062722685 0.010555407 0.002484014 0.00020406248 0.010511499 -0.0026181203 0.0 -0.007218214
00000000: afc6 c4bb cc5d 28ba c6b8 22bc 08fb 45bc
00000010: 3613 a0bb 7c39 e63b 676b d2bb de26 57bc
00000020: 20a4 dabb b6d2 a9bb 132a e0bb 2fab cbbb
00000030: 9cf0 a73c 5268 8e3c 6617 a23c eb52 8cbb
00000040: 8d15 03bc 3b27 e7bb 8ad8 f03b 8bb7 17bc
00000050: 80e0 fc3b 0000 0000 0000 0000 3838 babb
00000060: 9a87 cdbb 96f0 2c3c d7ca 223b 9bf9 5539
00000070: 6c38 2c3c c594 2bbb 0000 0000 c586 ecbb

deep_learning_classifier/dense-1/BiasAdd/ReadVariableOp/resource f4 [64]
0.011904455 0.005318434 -0.0060025593 0.0023813478 -0.005799542 -0.0053657456 0.0 0.010316133
0.0070629306 0.007344682 -0.007662054 -0.0033046727 -0.006505553 -0.006004882 -0.006561901 -0.0041746665
-0.0026426953 -0.0060049156 0.012810178 -0.0060051116 0.0021138196 -0.006002234 -0.010354006 -0.0025335418
0.0007456555 0.00020337902 0.010235115 -0.0065468783 -0.0060044685 -0.00600499 -0.006004809 -0.008853494
-0.004852145 -0.0075858245 -0.0060046497 -0.0060050874 -0.0030430364 -0.006142939 -0.0060051326 -0.0060024676
-0.00684003 -0.00080124044 -0.00714535 -0.0046430677 -0.006002104 -0.006005139 0.0005296627 -0.006004702
-0.0052223695 -0.005345814 -0.00701563 -0.0049235905 0.0 0.012003195 -0.0033158392 -0.007728125
-0.002945618 -0.0060039903 -0.0060051475 -0.0052219313 -0.0060049053 0.0021670118 -0.0034495953 -0.0062946137
00000000: e70a 433c 4246 ae3b 1eb1 c4bb 6310 1c3b
00000010: 160a bebb 23d3 afbb 0000 0000 ff04 293c
00000020: 2870 e73b a8ab f03b f811 fbbb 3593 58bb
00000030: 892c d5bb 9ac4 c4bb 3705 d7bb a4cb 88bb
00000040: 1231 2dbb e2c4 c4bb c8e1 513c 87c6 c4bb
00000050: 0288 0a3b 63ae c4bb d9a3 29bc c709 26bb
00000060: 1878 433a 2442 5539 2fb1 273c 3287 d6bb
00000070: 22c1 c4bb 82c5 c4bb fdc3 c4bb 3f0e 11bc
00000080: befe 9ebb 8292 f8bb a7c2 c4bb 53c6 c4bb
00000090: ae6d 47bb b54a c9bb b4c6 c4bb 59b0 c4bb
000000a0: 5522 e0bb 560a 52ba 8a23 eabb e024 98bb
000000b0: 4cad c4bb c2c6 c4bb 10d9 0a3a 17c3 c4bb
000000c0: 6920 abbb f02b afbb 5fe3 e5bb 1256 a1bb
000000d0: 0000 0000 0ca9 443c 8d4e 59bb 363c fdbb
000000e0: 450b 41bb 1fbd c4bb d4c6 c4bb bc1c abbb
000000f0: ccc4 c4bb 6d04 0e3b 9b12 62bb 0c43 cebb

deep_learning_classifier/conv2d-2/BiasAdd/ReadVariableOp/resource f4 [64]
-0.005994149 -0.005091956 -0.0054739146 -0.0074505755 0.014032777 -0.0072293533 -0.010169676 0.0095408885
-0.0028801523 -0.008358515 -0.0013139743 0.017689737 -6.8518224e-05 -0.004461252 -0.006289039 0.00031479195
-0.007016423 -0.010118095 -0.002480325 -0.0036420354 -0.0026363921 0.018973961 -0.009824992 0.0099094715
-0.0046893805 0.0052844784 -0.009723509 0.008692006 -0.015729163 0.005226227 -0.0026569106 0.003978482
-0.0020103026 -0.0032380335 -0.0064616106 0.0017310024 -0.008985455 0.009595301 -0.0055263713 -0.015433797
0.014180144 -0.00032433477 -0.005997366 0.011506052 -0.008908698 -0.0028322316 -0.002309556 -0.0034078823
-0.008470734 -0.005448256 0.016081719 -0.0016690195 0.0009564474 0.0017326997 0.0025088806 0.011645065
0.008870574 -0.0028903587 -0.0070890845 0.006954673 0.0047172583 0.0022313048 0.0057366285 -0.0064629046
00000000: 916a c4bb 6cda a6bb 865e b3bb f523 f4bb
00000010: bce9 653c 36e4 ecbb b69e 26bc 6351 1c3c
00000020: f0c0 3cbb 27f2 08bc a939 acba 11ea 903c
00000030: 71b1 8fb8 b22f 92bb 4814 cebb a90a a539
00000040: 06ea e5bb 5ec6 25bc f38c 22bb 37af 6ebb
00000050: 52c7 2cbb 486f 9b3c 01f9 20bc 565b 223c
00000060: 60a9 99bb 6b29 ad3b 5a4f 1fbc ea68 0e3c
00000070: 72da 80bc c540 ab3b 901f 2ebb ed5d 823b
00000080: 48bf 03bb 3035 54bb ebbb d3bb cde2 e23a
00000090: bb37 13bc 9c35 1d3c 9016 b5bb 09de 7cbc
000000a0: d653 683c 7a0b aab9 8d85 c4bb e183 3c3c
000000b0: caf5 11bc f69c 39bb eb5b 17bb c756 5fbb
000000c0: d5c8 0abc 4987 b2bb cfbd 833c 00c3 daba
000000d0: 19ba 7a3a c11b e33a 086c 243b f1ca 3e3c
000000e0: e255 113c 2c6c 3dbb 8d4b e8bb 07e4 e33b
000000f0: 3b93 9a3b 153b 123b 54fa bb3b c6c6 d3bb

deep_learning_classifier/conv2d-1/BiasAdd/ReadVariableOp/resource f4 [32]
-0.028286936 -0.009102487 -0.0029428648 0.004075172 -0.005676261 0.0027550885 -0.00769987 0.0014716508
0.011107922 -0.0072684255 0.026668737 0.020148473 0.0034564976 0.011014511 0.0049339402 0.019695878
-0.015018144 0.012874753 -0.0020656849 -0.01964535 -0.017613476 -0.012497578 -0.014273094 -0.014878489
-0.006636104 0.026845735 -0.0037012482 -0.0045110635 -0.0057615936 -0.0051826905 0.0027005982 0.026502393
00000000: 01ba e7bc 9922 15bc 14dd 40bb 0589 853b
00000010: eeff b9bb b78e 343b 314f fcbb 68e4 c03a
00000020: 00fe 353c f92b eebb 6578 da3c 690e a53c
00000030: 6886 623b 3576 343c e4ac a13b 4059 a13c
00000040: a90e 76bc a1f0 523c 7160 07bb 49ef a0bc
00000050: 234a 90bc a4c2 4cbc b2d9 69bc e8c4 73bc
00000060: ad73 d9bb 96eb db3c a490 72bb 8bd1 93bb
00000070: c0cb bcbb 8fd3 a9bb 85fc 303b 8c1b d93c

deep_learning_classifier/dense-1/MatMul f4 [64, 1792]
-0.051649578 0.009229485 0.052982315 -0.05274361 -0.023131479 -0.04581808 -0.0014070915 0.028448807
-0.021748107 0.051074382 0.027042553 0.023051247 0.018451568 0.0018913004 0.029277518 -0.036722228
-0.0043211533 -0.036188092 0.0088871345 0.06105967 -0.04116821 0.038294718 0.023682212 0.015102479
0.0120715555 -0.032439545 0.044103667 0.06910424 -0.0040474883 -0.044980034 0.019358749 -0.027277311
0.06003659 -0.026801618 0.04823838 -0.025911001 0.020681687 -0.00055001077 0.064120874 -0.030436022
0.039392352 0.026759667 0.05457805 0.024535676 0.05338189 -0.005106126 -0.024785152 -0.0413179
-0.0460613 0.038566757 0.09694726 -0.03225119 -0.025333857 -0.012371225 0.026623225 0.0009788079
0.08405782 -0.052652426 0.050489888 0.021174999 -0.05072514 -0.0018496385 -0.048291888 0.0045906175
0.008651443 -0.011085649 -0.026931096 -0.003011693 -0.053333603 0.027372712 -0.069131255 -0.02059386
-0.043691944 -0.060921103 0.051896717 0.062352184 0.15496004 -0.04924098 -0.02002414 -0.018981043
-0.016169818 0.032446235 -0.036860332 0.0009721386 0.019278724 0.049498945 0.0010744089 0.0660363
-0.05170825 0.07320241 -0.02631108 0.029787593 0.05627309 0.014883066 0.0047486546 0.016167799
0.021765959 0.045555722 -0.022127215 0.02786578 -0.052779768 0.03271566 -0.013292266 -0.010444535
-0.009481505 0.029363958 0.055541992 0.037508864 -0.029879872 -0.09334001 -0.06644418 -0.044180885
-0.056401078 -0.04489968 -0.105760224 0.0021040775 -0.01822132 0.023845581 0.079057984 -0.03516243
-0.015944697 0.013965499 0.046001077 -0.02391261 0.0006231263 -0.15120071 0.016082522 -0.019334929
-0.018980073 -0.069757015 -0.034221984 -0.02624337 0.060213 -0.007170285 -0.059047885 0.026211277
0.015211347 0.020992132 -0.048183568 0.030373024 0.105054826 -0.06515512 -0.026966855 -0.08204483
0.0024026472 0.0020404358 -0.009896528 0.038683474 0.061311774 -0.05448627 -0.048747737 0.00048622224
0.015063599 0.078904934 -0.01957247 0.0050323275 0.060242966 -0.084364556 0.023497725 -0.0604606
0.009713299 0.032349292 -0.023356743 0.024355145 0.008396208 -0.011677307 -0.045124434 -0.015349594
-0.016683536 0.0039080256 0.036018953 -0.05964845 -0.013700124 0.0020471793 -0.08828028 0.00698052
-0.021782704 -0.09139343 -0.1267962 -0.020516627 -0.033251658 -0.051758118 -0.0062196003 0.045687877
-0.03292531 0.00017495417 -0.03883036 0.010486462 0.032113448 0.002746776 -0.022138074 -0.0053184386
0.029299261 -0.0078074057 -0.05045425 -0.02453252 0.017417133 -0.0037254277 -0.08557062 0.016495071
-0.020388044 -0.046910502 -0.04207491 0.03394837 -0.037007738 -0.059627004 -0.045951482 -0.055749834
0.033659514 -0.027337873 0.044182103 -0.007994255 0.022800565 0.05272685 -0.0012716679 -0.00949081
0.018409345 -0.017182535 0.05518347 -0.012517723 -0.03962581 -0.07366838 0.0021035296 0.02361904
-0.013776545 -0.001662754 -0.048908748 -0.038433284 -0.0038518421 0.020084457 0.0022175484 -0.04271186
0.07597592 -0.03779497 0.029280879 -0.013292585 0.009208925 -0.06468381 0.0017771812 -0.029750478
0.0067514926 -0.048530683 -0.0016575373 0.06533235 0.005065411 -0.07500446 0.08655435 -0.06709127
0.04637873 0.039679676 -0.046545714 -0.013115833 0.07027002 -0.048442576 -0.0025363315 -0.02007791
00000000: 828e 53bd 4437 173c fc03 593d af09 58bd
00000010: 3a7e bdbc bdab 3bbd 286e b8ba 790d e93c
00000020: 1629 b2bc 5f33 513d 5888 dd3c f8d5 bc3c
00000030: be27 973c 83e5 f73a 68d7 ef3c 0c6a 16bd
00000040: 7698 8dbb f739 14bd 589b 113c b419 7a3d
00000050: ff9f 28bd ecda 1c3d 3301 c23c 6370 773c
00000060: c6c7 453c 54df 04bd 0ca6 343d 8686 8d3d
00000070: cba0 84bb fc3c 38bd 3d96 9e3c ab74 dfbc
00000080: ede8 753d 118f dbbc 9c95 453d 4f43 d4bc
00000090: a46c a93c 992e 10ba ce51 833d f754 f9bc
000000a0: e059 213d 1737 db3c 3c8d 5f3d 0bff c83c
000000b0: f8a6 5a3d 4a51 a7bb 3b0a cbbc f53c 29bd
000000c0: c6aa 3cbd 2df8 1d3d 498c c63d d319 04bd
000000d0: f388 cfbc aeb0 4abc f318 da3c 584b 803a
000000e0: 8226 ac3d 12aa 57bd 7cce 4e3d 3177 ad3c
000000f0: 2ac5 4fbd 926f f2ba b7cd 45bd e46c 963b
00000100: c8be 0d3c 95a0 35bc 9a9e dcbc d35f 45bb
00000110: 5674 5abd bd3c e03c b094 8dbd 74b4 a8bc
00000120: 53f6 32bd 6888 79bd a791 543d 0165 7f3d
00000130: d8ad 1e3e e9b0 49bd aa09 a4bc 227e 9bbc
00000140: 9176 84bc 58e6 043d dcfa 16bd 1ed7 7e3a
00000150: 6aee 9d3c 68bf 4a3d 2ed3 8c3a 0a3e 873d
00000160: 08cc 53bd 25eb 953d 568a d7bc 1c05 f43c
00000170: 9d7e 663d 1ad8 733c 9a9a 9b3b 5572 843c
00000180: 864e b23c a398 3a3d 2244 b5bc c746 e43c
00000190: 992f 58bd db00 063d cec7 59bc 8e1f 2bbc
000001a0: 5058 1bbc af8c f03c 0080 633d e5a2 193d
000001b0: a2c6 f4bc 0c29 bfbd e313 88bd 04f7 34bd
000001c0: d104 67bd bae8 37bd d198 d8bd 90e4 093b
000001d0: e144 95bc cf57 c33c 27e9 a13d 7b06 10bd
000001e0: 749e 82bc 8ccf 643c a06b 3c3d 61e4 c3bc
000001f0: 4c59 233a 5cd4 1abe 7ebf 833c 4964 9ebc
00000200: 197c 9bbc c4dc 8ebd 5a2c 0cbd 56fc d6bc
00000210: e8a1 763d b6f4 eabb 32dc 71bd 08b9 d63c
00000220: 0339 793c b1f7 ab3c 225c 45bd d9d0 f83c
00000230: fc26 d73d 0c70 85bd 98e9 dcbc 1f07 a8bd
00000240: bb75 1d3b d5b8 053b 0c25 22bc 9072 1e3d
00000250: 0e22 7b3d ff2c 5fbd b5ab 47bd a5eb fe39
00000260: 50cd 763c e998 a13d 7256 a0bc 39e6 a43b
00000270: 54c1 763d 53c7 acbd 4d7e c03c 89a5 77bd
00000280: 8724 1f3c b180 043d a456 bfbc 7184 c73c
00000290: 4090 093c 2d52 3fbc 66d4 38bd dd7c 7bbc
000002a0: e9ab 88bc e50e 803b 9c88 133d ef51 74bd
000002b0: 7c76 60bc f829 063b 4bcc b4bd d9bc e43b
000002c0: a471 b2bc 7b2c bbbd ddd6 01be 7c12 a8bc
000002d0: e432 08bd 5200 54bd cacd cbbb 3623 3b3d
000002e0: b1dc 06bd e773 3739 950c 1fbd 69cf 2b3c
000002f0: 6489 033d 4103 343b e85a b5bc 4c46 aebb
00000300: 0105 f03c 44d5 ffbb 1ea9 4ebd 6cf8 c8bc
00000310: 60ae 8e3c 4e26 74bb a63f afbd ac20 873c
00000320: d404 a7bc 3a25 40bd be56 2cbd 720d 0b3d
00000330: 6d95 17bd 723b 74bd 9f37 3cbd f059 64bd
00000340: 8fde 093d adf3 dfbc 4bf8 343d 56fa 02bc
00000350: 40c8 ba3c 1cf8 573d 18ae a6ba 587f 1bbc
00000360: 32cf 963c 63c2 8cbc 1008 623d 2317 4dbc
00000370: ac4e 22bd 73df 96bd 5fdb 093b b87c c13c
00000380: 05b7 61bc c4f0 d9ba 8a54 48bd 386c 1dbd
00000390: 306f 7cbb 2988 a43c 4a54 113b a2f2 2ebd
000003a0: 4399 9b3d e6ce 1abd 74de ef3c 24c9 59bc
000003b0: 08e1 163c f278 84bd 4ef0 e83a 46b7 f3bc
000003c0: a03b dd3b 1cc8 46bd b941 d9ba f8cc 853d
000003d0: bffb a53b f09b 99bd 6843 b13d 2667 89bd
000003e0: a0f7 3d3d 2887 223d b8a6 3ebd cae3 56bc
000003f0: bae9 8f3d b96b 46bd 9538 26bb 6e7a a4bc

deep_learning_classifier/dense-2/MatMul f4 [32, 64]
0.07211424 -0.10699308 0.15057892 0.115058616 0.05442518 0.20822895 -0.042408705 0.010738818
-0.019292835 0.0033609518 0.04611051 -0.23018657 -0.19815135 -0.10194373 -0.14900059 0.16112536
0.12209463 -0.10338672 -0.19991046 0.09473545 0.12821612 0.23362987 -0.038418606 -0.20818713
-0.14591277 0.14426732 -0.03947544 -0.15970296 0.028121566 0.21217555 -0.12145603 -0.21524228
0.20654184 0.08804453 -0.17694478 -0.06793029 -0.1756918 -0.23584002 0.22937715 -0.04291749
0.016121507 0.046178102 0.041143302 -0.009015891 -0.0400663 -0.056407034 -0.09153136 0.23834802
-0.09430945 0.13280106 -0.15618056 0.18539464 0.12378228 -0.15347382 -0.08718298 0.20917794
-0.032071542 -0.014703095 -0.16569424 -0.17114818 -0.017408496 0.20749696 0.019010017 -0.1659404
-0.16249754 -0.045169316 0.09831941 -0.25228837 0.028528094 0.235659 0.21894348 -0.062032674
-0.07144965 -0.26322886 -0.1967591 0.00066670787 -0.06788999 -0.2296754 0.19904774 -0.1716733
0.22746201 0.23590112 0.016161833 -0.12075269 0.21674734 0.03570328 0.18463752 -0.0023312059
0.10091099 0.13443302 -0.089318916 0.21764003 0.21532126 0.058152135 -0.0032376356 0.19940571
-0.15914315 0.03319263 -0.1680654 0.16782194 0.15594228 0.084297836 -0.027090412 0.10674073
0.085207164 0.2639799 0.20738667 0.25664428 0.22493304 0.05538135 -0.04210033 0.14209129
0.03190452 0.090913534 0.05644362 -0.1949681 0.18994951 -0.2321222 -0.22356683 0.18324614
0.23533489 0.14215451 0.25004002 0.13934427 0.22343603 0.2504314 0.008216944 -0.09528607
0.12470856 -0.0054155267 -0.119683675 -0.0506443 -0.23479265 0.070111334 0.21449906 -0.045870494
0.009031295 -0.24328941 -0.13640839 0.024861185 -0.15338135 -0.21247512 -0.2345365 -0.047509056
-0.02074078 0.14909182 -0.111047864 -0.094766915 -0.024169173 0.059220407 -0.04678354 0.028737463
-0.026838098 0.10269856 -0.24255565 -0.032288183 -0.10324282 0.16373341 -0.17758995 0.16008621
0.24071208 0.18746182 0.14444722 -0.1584301 -0.21752109 -0.10615824 0.17628504 -0.0671945
0.19650781 -0.031035563 0.23524223 0.0049544214 0.012908329 0.038974755 0.17298646 -0.00537777
-0.12735967 0.016956985 0.004122738 -0.22662981 -0.09287864 -0.22290906 0.2061016 -0.0017610517
0.14883834 0.09836047 -0.1043223 0.0053223437 0.13916965 0.09279241 0.23660633 -0.22601217
-0.16973615 0.10985293 0.0858699 0.07142861 -0.20722991 0.065810464 -0.020140707 0.12722006
0.18695334 0.0016851062 0.19947982 0.15472078 0.030213632 0.08376596 -0.20253342 -0.07177107
0.05590515 -0.2535266 0.13670945 0.22306827 -0.021086285 0.06603125 -0.1280127 0.0078070024
-0.06824174 0.04435486 -0.22469768 -0.016319454 -0.23766302 -0.05296284 -0.17446207 0.20599723
-0.13542373 0.20833577 0.22078164 0.15978888 -0.12235729 0.17865136 0.22553998 -0.02003485
0.106089294 0.4412758 0.1659931 -0.21136378 0.1687131 -0.07548208 -0.07854092 -0.18616988
0.09467493 -0.11896795 -0.23068574 -0.13874719 -0.22229159 0.00575277 -0.11200084 -0.090179645
0.2520381 0.23943329 -0.041693177 0.1288867 0.11437685 -0.14289175 0.14414251 -0.21270901
00000000: a1b0 933d 301f dbbd 5c31 1a3e daa3 eb3d
00000010: f0ec 5e3d f839 553e c0b4 2dbd def1 2f3c
00000020: 020c 9ebc 6a43 5c3b 60de 3c3d 07b6 6bbe
00000030: 30e8 4abe e0c7 d0bd 9c93 18be 0cfe 243e
00000040: c00c fa3d 6bbc d3bd 54b5 4cbe a904 c23d
00000050: 164b 033e ab3c 6f3e d45c 1dbd 022f 55be
00000060: 286a 15be d0ba 133e 00b1 21bd 2c89 23be
00000070: 335f e63c 8c44 593e f0bd f8bd 7968 5cbe
00000080: b47f 533e b150 b43d 0331 35be 091f 8bbd
00000090: 8de8 33be 0c80 71be d8e1 6a3e 40ca 2fbd
000000a0: 4011 843c 4025 3d3d e185 283d 63b7 13bc
000000b0: 901c 24bd 100b 67bd cb74 bbbd 8111 743e
000000c0: 5025 c1bd 00fd 073e cced 1fbe 18d8 3d3e
000000d0: 9081 fd3d 3e28 1dbe fd8c b2bd be32 563e
000000e0: 735d 03bd 40e5 70bc c0ab 29be 7841 2fbe
000000f0: 439c 8ebc 157a 543e e5ba 9b3c 48ec 29be
00000100: c165 26be 7603 39bd b05b c93d f12b 81be
00000110: c0b3 e93c 9850 713e b832 603e f915 7ebd
00000120: 3254 92bd efc5 86be 387b 49be 02c6 2e3a
00000130: e809 8bbd 0730 6bbe 2cd3 4b3e 20cb 2fbe
00000140: cdeb 683e 1090 713e d265 843c 304d f7bd
00000150: 04f3 5d3e 9a3d 123d 9e11 3d3e 25c7 18bb
00000160: 6caa ce3d cfa8 093e d6ec b6bd 07dd 5e3e
00000170: 2d7d 5c3e ef30 6e3d 832e 54bb 0331 4c3e
00000180: 6cf6 22be fff4 073d 5619 2cbe 84d9 2b3e
00000190: 55af 1f3e 58a4 ac3d b6ec ddbc e29a da3d
000001a0: 1881 ae3d 6028 873e 2c5d 543e e166 833e
000001b0: d954 663e 8ed7 623d 6571 2cbd 6180 113e
000001c0: 50ae 023d e030 ba3d 6d31 673d b8a5 47be
000001d0: 2082 423e 71b1 6dbe b4ee 64be e0a4 3b3e
000001e0: a1fb 703e f490 113e 3f05 803e 44b0 0e3e
000001f0: 6acc 643e 8b38 803e 5ca0 063c 5825 c3bd
00000200: 3467 ff3d bb74 b1bb b71c f5bd 6670 4fbd
00000210: 7c6d 70be 8896 8f3d a4a5 5b3e b3e2 3bbd
00000220: fff7 133c dc20 79be a4ae 0bbe afa9 cb3c
00000230: 0010 1dbe 1493 59be 562a 70be db98 42bd
00000240: 91e8 a9bc 87ab 183e 106d e3bd 2815 c2bd
00000250: 6efe c5bc 1991 723d 19a0 3fbd d46a eb3c
00000260: 92db dbbc 9f53 d23d 8260 78be 9d40 04bd
00000270: f970 d3bd bba9 273e 24da 35be a4ed 233e
00000280: 3a7d 763e fef5 3f3e f9e9 133e 803b 22be
00000290: d9bd 5ebe 7e69 d9bd 1184 343e 459d 89bd
000002a0: 5839 493e 4b3e febc 57e3 703e b358 a23b
000002b0: 757d 533c fea3 1f3d 5d23 313e 0138 b0bb
000002c0: 936a 02be 60e9 8a3c 0818 873b a511 68be
000002d0: 2837 bebd 4642 64be 4c0c 533e 17d3 e6ba
000002e0: 1469 183e 3771 c93d eea6 d5bd 0e67 ae3b
000002f0: 7d82 0e3e f209 be3d ee48 723e bc6f 67be
00000300: 50cf 2dbe 93fa e03d 8fdc af3d 2a49 923d
00000310: 1434 54be a3c7 863d 20fe a4bc fa45 023e
00000320: b270 3f3e c8de dc3a 7044 4c3e 206f 1e3e
00000330: 9482 f73c 7d8d ab3d ec64 4fbe b6fc 92bd
00000340: ccfc 643d 3dce 81be 90fd 0b3e 026c 643e
00000350: 25bd acbc 643b 873d c315 03be e2d1 ff3b
00000360: 53c2 8bbd 71ad 353d 2617 66be 60b0 85bc
00000370: ef5d 73be 90ef 58bd 2fa6 32be f0f0 523e
00000380: 85ac 0abe f955 553e 9514 623e b29f 233e
00000390: 7596 fabd 62f0 363e f4f3 663e 2020 a4bc
000003a0: 5845 d93d e7ee e13e 18fa 293e bf6f 58be
000003b0: 20c3 2c3e 5996 9abd 10da a0bd 51a3 3ebe
000003c0: eee4 c13d 78a5 f3bd e238 6cbe be13 0ebe
000003d0: 68a0 63be bc81 bc3b b260 e5bd 1bb0 b8bd
000003e0: 230b 813e 002e 753e 77c6 2abd e0fa 033e
000003f0: 693e ea3d 3752 12be 189a 133e 64d0 59be

deep_learning_classifier/output/MatMul f4 [5, 32]
0.3639243 0.08138351 -0.30723312 0.1393394 0.21272668 0.15959126 0.22125211 0.19985548
-0.40603402 0.33873284 -0.22407492 0.35387075 0.12263349 0.41121647 0.17106107 0.061091453
-0.12126022 0.055615034 0.30725783 0.0054641417 -0.11818319 -0.08795616 0.35356998 -0.027105572
0.28672546 -0.33409357 -0.40087572 0.13906795 -0.07090193 -0.3253055 -0.15567176 -0.17282143
-0.30187842 -0.05583865 0.2440174 0.30745146 0.15610941 -0.20613657 0.31089422 -0.24715813
0.21597293 -0.33647048 0.112892605 0.15989004 -0.12199216 0.013143295 -0.31982303 -0.21710874
0.012944528 0.3549757 -0.1355088 -0.10898838 -0.192881 0.24408418 -0.050176173 -0.069972984
0.4061439 0.18399459 0.13006212 -0.121175185 0.12682319 -0.06398073 -0.18682507 0.0112567665
-0.22316495 -0.14678493 -0.16254453 0.1615169 -0.18512183 -0.34023798 -0.29699638 -0.17713788
-0.26458403 0.37819597 -0.07673164 -0.20969348 0.17261147 0.31010988 -0.1160936 -0.25094974
0.30761844 -0.39531115 0.18635973 -0.23609069 -0.42624846 0.06338394 0.15509063 0.021232352
-0.22982663 0.2168496 0.28348798 0.051625762 -0.11288807 -0.18905002 -0.04647529 -0.23839049
0.3604409 -0.26944017 0.037960917 -0.1451656 -0.06942009 -0.0039408086 -0.06217116 -0.04688389
-0.14170896 -0.18066734 -0.26401687 0.090622805 0.22230704 0.34535602 0.0030712062 -0.011358254
-0.17577165 0.020379812 -0.0712748 0.10054843 0.0047458992 0.14611977 -0.2953486 -0.09636669
-0.20867094 0.35936302 0.04384554 -0.19586419 -0.37452084 0.34474772 0.06850451 -0.12876052
0.32877734 0.0001267852 0.16313496 0.13756303 0.37143618 -0.2340758 0.03312828 0.31676245
0.1277681 0.23422426 -0.2795986 0.21930927 0.03792583 0.03272456 -0.18277358 -0.23658407
0.4034992 0.108974405 -0.39408547 -0.36544597 0.039601143 -0.1625496 -0.21643512 0.18122435
0.019451162 0.004403805 0.29797542 -0.17715281 -0.3757627 0.3299442 0.09102905 0.07894399
00000000: 4954 ba3e 66ac a63d a94d 9dbe fdae 0e3e
00000010: 06d5 593e e46b 233e ea8f 623e eaa6 4c3e
00000020: b1e3 cfbe 646e ad3e e573 65be 8c2e b53e
00000030: 4427 fb3d f78a d23e a22a 2f3e 083b 7a3d
00000040: 4757 f8bd 97cc 633d e650 9d3e 8b0c b33b
00000050: 070a f2bd 5c22 b4bd 2007 b53e 810c debc
00000060: aecd 923e 500e abbe 953f cdbe d467 0e3e
00000070: 0835 91bd 718e a6be 6b68 1fbe 1af8 30be
00000080: cf8f 9abe 11b7 64bd b3df 793e 476a 9d3e
00000090: 25db 1f3e 7715 53be 872d 9f3e 0517 7dbe
000000a0: 0228 5d3e dc45 acbe 3d34 e73d 37ba 233e
000000b0: 07d7 f9bd fa56 573c d8bf a3be c151 5ebe
000000c0: 4915 543c 60bf b53e d2c2 0abe 4d35 dfbd
000000d0: 9982 45be 34f1 793e 8885 4dbd ff4d 8fbd
000000e0: 18f2 cf3e 1469 3c3e 012f 053e b22a f8bd
000000f0: f0dd 013e 5408 83bd 124f 3fbe 4d6e 383c
00000100: 5a85 64be ca4e 16be 1372 26be b064 253e
00000110: 9490 3dbe ac33 aebe e90f 98be a263 35be
00000120: 8f77 87be e7a2 c13e 7a25 9dbd e3b9 56be
00000130: 10c1 303e b9c6 9e3e 7bc2 edbd 7c7c 80be
00000140: 2a80 9d3e 3966 cabe 16d5 3e3e c2c1 71be
00000150: 3d3d dabe 70cf 813d 14d0 1e3e 78ef ad3c
00000160: ac57 6bbe d20d 5e3e 5625 913e 8975 533d
00000170: dc31 e7bd 5496 41be e05c 3ebd a31c 74be
00000180: b68b b83e 10f4 89be e87c 1b3d 4ba6 14be
00000190: 1f2c 8ebd e621 81bb 30a7 7ebd 5209 40bd
000001a0: 271c 11be dc00 39be 382d 87be 7398 b93d
000001b0: 75a4 633e 81d2 b03e 4a46 493b f817 3abc
000001c0: 7cfd 33be 90f3 a63c 86f8 91bd 56ec cd3d
000001d0: 7d83 9b3b 6ca0 153e ef37 97be e65b c5bd
000001e0: d6ad 55be 6efe b73e 6297 333d 9f90 48be
000001f0: 32c1 bfbe c682 b03e 184c 8c3d ccd9 03be
00000200: 8155 a83e a5f1 0439 da0c 273e 53dd 0c3e
00000210: e22c be3e 91b1 6fbe 85b1 073d b02e a23e
00000220: a4d5 023e 7cd8 6f3e 8c27 8fbe 9c92 603e
00000230: 1d58 1b3d 300a 063d ff28 3bbe 1843 72be
00000240: 7297 ce3e f92d df3d 92c5 c9be bc1b bbbe
00000250: cf34 223d 6773 26be 2ba1 5dbe e092 393e
00000260: 0b58 9f3c cb4d 903b 3c90 983e 8c67 35be
00000270: f863 c0be 72ee a83e 706d ba3d 63ad a13d

deep_learning_classifier/conv2d-1/Conv2D f4 [32, 3, 3, 1]
0.09604831 -0.04261376 0.06914234 0.114597544 0.07549179 -0.07156001 0.058659606 0.111576974
0.12903531 0.008554491 -0.08568437 0.07452481 0.12211168 0.027989963 0.10790412 0.16823964
-0.010574946 0.08347087 -0.08611677 -0.09436739 -0.07764917 0.14983799 -0.07979371 0.06099337
-0.040140424 0.027744561 -0.019402951 -0.11824414 -0.06287198 -0.1597797 -0.1503226 -0.12065606
-0.07852711 -0.018766874 0.031173853 0.09757204 -0.10072851 -0.14519529 -0.029035581 -0.028855706
0.020164847 -0.033953544 0.11323785 0.027313732 0.105986826 -0.033461533 -0.04871509 -0.055553697
0.0070664254 0.062497333 0.039830253 -0.035199136 -0.15200576 0.06991591 -0.01662109 -0.0071837935
0.09121092 0.15345156 0.03634656 0.014537474 0.025490731 -0.102434896 0.085045815 0.09506167
0.100956395 -0.10203608 -0.06485298 -0.10306836 0.10389604 -0.12442745 -0.027424522 0.0073299874
0.04712035 -0.12926708 -0.09981265 -0.14808238 -0.016111141 0.09403084 0.16397846 -0.018331729
-0.021236734 -0.10715093 0.12755916 0.12577298 0.09280964 0.13795142 0.08512412 -0.07811632
0.069732346 0.04369599 0.0037543334 -0.118942685 -0.1324374 -0.1642331 -0.119547315 -0.016783642
-0.05531633 -0.08683615 -0.042175062 0.11582815 0.020333119 0.035858013 -0.13981634 0.08461597
-0.12928043 0.053010147 -0.12040089 -0.07843552 0.022828383 -0.06982133 0.073438704 -0.096981704
0.050417446 -0.055201907 0.10913012 0.011122085 0.15846871 -0.14503397 -0.0758758 -0.022991398
0.17653148 0.09438306 0.0025420468 -0.14510983 -0.15389778 -0.088824764 -0.031613003 -0.13353772
-0.09906664 -0.13967852 0.094017476 -0.12350931 -0.047716178 -0.058278855 0.043250605 -0.14075458
-0.06733713 0.107912675 -0.039243124 -0.0009517885 -0.08349869 -0.064082764 0.07686912 -0.1401875
0.1167186 0.012073062 -0.1111834 -0.05695875 0.115048885 -0.12788622 0.11261131 0.046112005
0.16694812 0.11716926 0.0049606487 0.031206409 0.0833444 0.040145565 0.13246812 -0.12348362
-0.0780643 0.059297066 -0.032068484 -0.10465917 -0.0821493 -0.021135528 0.10085088 0.046831224
0.009702337 0.0907471 -0.11123595 0.14502427 -0.044365153 0.118420035 -0.16138159 -0.030401018
0.018282728 0.14960435 -0.009425629 0.05446649 0.04890535 0.05209559 0.04472254 -0.02704275
0.11743927 -0.13291903 0.014992349 0.15212598 -0.07555724 0.079889596 0.1438971 0.056738764
-0.13879922 -0.025189875 -0.12985553 0.14303589 0.008118753 0.006990181 -0.080468066 -0.014335225
-0.092230685 -0.054985955 -0.07055803 0.016859736 0.1972644 0.13596587 0.09053563 -0.06927728
0.121624134 0.011902263 -0.035159256 0.066610165 0.030716086 0.085268885 0.11464452 0.004955178
-0.11541116 0.0904578 0.12913415 -0.01626447 -0.1437042 0.021943647 0.014301639 0.02517005
0.052934546 -0.08030129 -0.035889357 -0.008242246 -0.19369483 -0.15545566 -0.17539424 -0.15451527
-0.13770619 -0.105159216 -0.12512983 0.0007958072 0.014568033 0.10946868 0.06017535 0.069965065
-0.10970269 -0.0024605254 -0.110795654 -0.06702717 0.1192057 0.0342652 0.040544514 0.0289803
-0.099683374 0.14603658 0.08650007 0.14632371 -0.083600566 0.054040667 -0.10797247 0.14446299
00000000: fab4 c43d c48b 2ebd 809a 8d3d 1eb2 ea3d
00000010: 719b 9a3d 0e8e 92bd 0e45 703d 7882 e43d
00000020: d521 043e 2328 0c3c 497b afbd 77a0 983d
00000030: b015 fa3d 354b e53c d6fc dc3d 0347 2c3e
00000040: 8a42 2dbc c7f2 aa3d fd5d b0bd b143 c1bd
00000050: 8706 9fbd 216f 193e e26a a3bd 2fd4 793d
00000060: 496a 24bd 9048 e33c f0f2 9ebc fc29 f2bd
00000070: 06c3 80bd 4a9d 23be 2bee 19be 861a f7bd
00000080: d2d2 a0bd fdbc 99bc 4f60 ff3c dad3 c73d
00000090: c04a cebd 13ae 14be 07dc edbc cd62 ecbc
000000a0: c030 a53c df12 0bbd 3fe9 e73d 0cc1 df3c
000000b0: 9f0f d93d f60e 09bd 7989 47bd 468c 63bd
000000c0: 798d e73b 34fd 7f3d 0c25 233d f82c 10bd
000000d0: 66a7 1bbe 1330 8f3d f428 88bc 0766 ebbb
000000e0: cacc ba3d 6822 1d3e 21e0 143d 962e 6e3c
000000f0: f0d1 d03c 63c9 d1bd 802c ae3d b1af c23d
00000100: 3ac2 ce3d 4bf8 d0bd a4d1 84bd 8115 d3bd
00000110: 72c7 d43d d2d3 febd 64a9 e0bc 6430 f03b
00000120: 4501 413d 975e 04be 936a ccbd e8a2 17be
00000130: 83fb 83bc 3e93 c03d f8e9 273e 6c2c 96bc
00000140: a9f8 adbc f271 dbbd de9e 023e a2ca 003e
00000150: fb12 be3d 2343 0d3e 8e55 ae3d 73fb 9fbd
00000160: d5cf 8e3d 91fa 323d 430b 763b 3998 f3bd
00000170: ab9d 07be b92c 28be 39d5 f4bd d97d 89bc
00000180: 6093 62bd 27d7 b1bd c2bf 2cbd 4f37 ed3d
00000190: a491 a63c dadf 123d 042c 0fbe 234b ad3d
000001a0: 1762 04be 2b21 593d be94 f6bd cda2 a0bd
000001b0: 9702 bb3c 7cfe 8ebd 0867 963d 589e c6bd
000001c0: 8682 4e3d 651b 62bd 9d7f df3d 6839 363c
000001d0: 9f45 223e c983 14be c564 9bbd 7558 bcbc
000001e0: abc4 343e e84b c13d 7898 263b ac97 14be
000001f0: 6197 1dbe c2e9 b5bd a37c 01bd 1dbe 08be
00000200: 73e3 cabd e307 0fbe 3c8c c03d 73f2 fcbd
00000210: 0a72 43bd cfb5 6ebd 8c27 313d f821 10be
00000220: 0de8 89bd 5201 dd3d 66bd 20bd 7281 79ba
00000230: 5c01 abbd d33d 83bd 8f6d 9d3d 508d 0fbe
00000240: 290a ef3d 18ce 453c 1fb4 e3bd 944d 69bd
00000250: c09e eb3d 9bf4 02be c2a0 e63d f1df 3c3d
00000260: 73f4 2a3e 70f6 ef3d f08c a23b 95a4 ff3c
00000270: 78b0 aa3d ad6f 243d b9a5 073e fbe4 fcbd
00000280: 2de0 9fbd 7be1 723d 3e5a 03bd 8c57 d6bd
00000290: e43d a8bd 6a24 adbc e88a ce3d 19d2 3f3d
000002a0: 8df6 1e3c 9ed9 b93d accf e3bd 3e81 143e
000002b0: 3cb8 35bd 3486 f23d 3741 25be 8e0b f9bc
000002c0: a9c5 953c e231 193e f46d 1abc 4118 5f3d
000002d0: fa50 483d 2f62 553d fb2e 373d c288 ddbc
000002e0: 0084 f03d ed1b 08be 78a2 753c eac6 1b3e
000002f0: c1bd 9abd 289d a33d c359 133e e866 683d
00000300: 6221 0ebe ff5a cebc d9f8 04be 0078 123e
00000310: 8504 053c e30d e53b 71cc a4bd 4bde 6abc
00000320: 71e3 bcbd f438 61bd ba80 90bd 6e1d 8a3c
00000330: aeff 493e a33a 0b3e bf6a b93d 3fe1 8dbd
00000340: 1316 f93d b601 433c 2703 10bd e96a 883d
00000350: 4da0 fb3c 74a1 ae3d bfca ea3d 0c5f a23b
00000360: b05c ecbd f041 b93d be3b 043e 113d 85bc
00000370: 3227 13be 2ac3 b33c 6c51 6a3c 6c31 ce3c
00000380: e5d1 583d 0175 a4bd b800 13bd 7c0a 07bc
00000390: f057 46be c52f 1fbe 8c9a 33be 4039 1ebe
000003a0: da02 0dbe b75d d7bd 0922 00be b89d 503a
000003b0: c2ae 6e3c 1e31 e03d 6e7a 763d d849 8f3d
000003c0: ceab e0bd c440 21bb d5e8 e2bd 8a45 89bd
000003d0: 1e22 f43d ab59 0c3d 0112 263d 1868 ed3c
000003e0: cc26 ccbd 9d8a 153e f326 b13d e2d5 153e
000003f0: c636 abbd bf59 5d3d ac20 ddbd 1bee 133e

deep_learning_classifier/conv2d-2/Conv2D f4 [64, 3, 3, 32]
-0.05643242 0.054655183 -0.038296204 -0.0031354255 -0.05719938 -0.04335132 0.030607166 -0.020326825
0.01669239 -0.027255617 0.03705085 0.048241757 -0.030557113 -0.091599375 0.035351917 -0.07760963
0.045513973 0.0152302515 -0.08771981 -0.024328157 -0.023068763 0.013202232 -0.051622722 -0.07484548
-0.06234317 -0.058240153 -0.08473316 0.0122735305 0.012093834 -0.01106785 0.038923208 -0.08812328
0.06993298 -0.03612448 0.03110827 0.064175636 0.075917214 0.061453484 0.039471153 0.036423344
-0.007097042 -0.00095893774 -0.041320156 -0.027884522 0.012060078 -0.025913788 0.07339132 -0.08585016
0.060011003 0.021507755 -0.051957913 -0.07322519 0.004277476 0.055783246 0.036308102 0.028135778
-0.044563744 0.055360913 0.0026033716 -0.07493701 0.040907104 0.030053755 0.042308513 -0.04485888
-0.03946844 -0.059713084 0.018706767 0.0003022203 -0.0509769 0.04462536 0.045642897 -0.019366255
0.02973609 0.074236535 0.0627724 0.0055067935 -0.005649576 0.031777676 -0.044796526 -0.016418353
0.07668158 -0.020001573 -0.054882742 -0.03428039 0.049256414 0.075390525 -0.05065475 0.047510773
-0.04126417 -0.06167575 0.044920273 0.036067996 0.076139174 0.0057893717 -0.021065274 -0.042964403
-0.06904588 -0.06625599 -0.026704518 0.05641304 -0.013373241 -0.07862666 0.001233385 0.06552378
0.035999186 0.039946925 -0.058066405 -0.06690349 0.07103573 -0.064155154 -0.05791965 -0.015212577
0.0154928295 0.05315291 0.033820268 -0.057036113 -0.020901596 0.07043584 -0.002981061 0.030863278
0.044710178 -0.048632976 0.072250225 0.022748144 0.04429769 -0.006530773 -0.053864274 0.050303865
-0.016745575 -0.009639445 -0.067208156 0.01967607 -0.06485922 0.010678451 -0.05173841 0.04473504
-0.08034837 -0.016736971 0.010138485 -0.07888697 -0.037103876 -0.08202264 -0.06828221 0.0719484
0.030647159 -0.057269342 0.04579823 -0.07115991 0.060456913 -0.08044992 0.052160744 -0.00028994627
0.024279999 -0.07264106 0.019275345 0.028894972 -0.0148136085 0.026075058 -0.08212139 0.03060646
-0.08232201 -0.076410025 -0.08984792 -0.086933345 -0.061809175 0.035669994 -0.08446128 -0.08676517
-0.011251996 -0.08456221 0.066846125 -0.07668205 -0.028874656 -0.012019415 0.011904659 -0.04824932
-0.031781424 0.03513909 -0.06844816 -0.03094739 -0.05821891 -0.084911436 -0.061204474 -0.0067640906
0.03641506 0.0016071727 0.06380026 0.06990529 0.05779781 -0.011710952 0.063193195 0.034163043
-0.02617449 0.034573 -0.047637995 0.040814918 0.013728855 0.035098635 -0.07373747 0.016525097
0.07714528 0.06611315 0.043259572 0.038651057 0.058652237 -0.041133046 0.0128142405 0.059318006
0.0467471 0.014674197 0.060657173 -0.011932995 0.058468603 -0.027208442 0.04781774 -0.053792927
-0.07627055 0.023531144 -0.06473798 -0.006170999 -0.04605527 0.058463316 -0.08358647 -0.04083953
-0.039066907 -0.04301356 0.038907856 -0.027224807 0.06439546 0.07501692 -0.016260277 -0.032952085
0.05998368 -0.07350369 0.0165726 0.06161223 -0.06742522 0.0482891 -0.08085185 0.041050844
-0.08643952 0.004940544 -0.044511143 -0.082684085 -0.08012476 -0.0644561 -0.08043422 -0.0007733447
-0.045669675 -0.04578061 -0.07418465 0.070631795 0.008110206 0.05763604 0.014968104 0.015959598
00000000: ae25 67bd 1dde 5f3d 7bdc 1cbd b67b 4dbb
00000010: e649 6abd 2791 31bd e1bb fa3c 7184 a6bc
00000020: 7bbe 883c 2c47 dfbc a2c2 173d 2699 453d
00000030: e952 fabc 7498 bbbd 2ccd 103d ccf1 9ebd
00000040: dc6c 3a3d 4e88 793c 72a6 b3bd d84b c7bc
00000050: b4fa bcbc 2d4e 583c 5972 53bd 9648 99bd
00000060: 8d5b 7fbd 3a8d 6ebd 9488 adbd eb16 493c
00000070: 3725 463c ed55 35bc f16d 1f3d fa79 b4bd
00000080: 0639 8f3d 43f7 13bd c5d6 fe3c 846e 833d
00000090: 7c7a 9b3d a6b6 7b3d 81ac 213d a530 153d
000000a0: 4e8e e8bb 3961 7bba 533f 29bd 156e e4bc
000000b0: a297 453c 2749 d4bc 304e 963d 35d2 afbd
000000c0: 19ce 753d 0831 b03c d2d1 54bd 17f7 95bd
000000d0: 122a 8c3b f97c 643d ceb7 143d 017d e63c
000000e0: 7988 36bd 20c2 623d 549d 2a3b 9378 99bd
000000f0: 358e 273d 4b33 f63c b14b 2d3d f2bd 37bd
00000100: a9a9 21bd b595 74bd ef3e 993c 5273 9e39
00000110: 27cd 50bd 15c9 363d 0cf4 3a3d fba5 9ebc
00000120: 1a99 f33c 5309 983d d18e 803d 5572 b43b
00000130: 1420 b9bb 4f29 023d 907c 37bd c87f 86bc
00000140: 3b0b 9d3d 57da a3bc bacc 60bd 9869 0cbd
00000150: 18c1 493d 5966 9a3d 5b7b 4fbd a89a 423d
00000160: 9e04 29bd b69f 7cbd 52fe 373d 09bc 133d
00000170: dbee 9b3d c5b4 bd3b 1591 acbc 71fb 2fbd
00000180: ed67 8dbd 38b1 87bd 6fc3 dabc 5c11 673d
00000190: 701b 5bbc 0407 a1bd 88a9 a13a 5531 863d
000001a0: e273 133d 639f 233d 0ad7 6dbd b204 89bd
000001b0: 2e7b 913d c763 83bd 283d 6dbd 2c3e 79bc
000001c0: a3d5 7d3c deb6 593d 1f87 0a3d b39e 69bd
000001d0: d339 abbc aa40 903d e85d 43bb fcd4 fc3c
000001e0: 0522 373d 5f33 47bd edf7 933d 515a ba3c
000001f0: 7f71 353d 1800 d6bb c9a0 5cbd 6d0b 4e3d
00000200: 042e 89bc c3ee 1dbc 6ea4 89bd b62f a13c
00000210: e9d4 84bd abf4 2e3c a8eb 53bd 173c 373d
00000220: b08d a4bd f91b 89bc e31b 263c 7e8f a1bd
00000230: 3cfa 17bd 7cfb a7bd 8bd7 8bbd af59 933d
00000240: c00f fb3c 4293 6abd ed96 3b3d 49bc 91bd
00000250: aba1 773d edc2 a4bd 81a6 553d ee03 98b9
00000260: d9e6 c63c d6c4 94bd 54e7 9d3c 26b5 ec3c
00000270: c7b4 72bc 5c9b d53c 422f a8bd 66ba fa3c
00000280: 7198 a8bd dc7c 9cbd 3002 b8bd 1c0a b2bd
00000290: 9e2b 7dbd b31a 123d 09fa acbd f0b1 b1bd
000002a0: 4b5a 38bc f42e adbd 9fe6 883d 7b0b 9dbd
000002b0: 8b8a ecbc 15ed 44bc c20b 433c 14a1 45bd
000002c0: 3d2d 02bd 02ee 0f3d 8d2e 8cbd 6185 fdbc
000002d0: f476 6ebd 0ce6 adbd 8bb1 7abd 4ea5 ddbb
000002e0: f527 153d c4a7 d23a b6a9 823d 812a 8f3d
000002f0: 65bd 6c3d 4bdf 3fbc 6f6b 813d 8cee 0b3d
00000300: e26b d6bc 6b9c 0d3d 0f20 43bd 8b2d 273d
00000310: feee 603c 96c3 0f3d ac03 97bd a45f 873c
00000320: 58fe 9d3d 5566 873d f330 313d 9250 1e3d
00000330: 543d 703d 207b 28bd d2f2 513c 70f7 723d
00000340: e379 3f3d 0b6c 703c a873 783d 9c82 43bc
00000350: c67c 6f3d 3de4 debc 89dc 433d f955 5cbd
00000360: bc33 9cbd 63c4 c03c 5995 84bd 1736 cabb
00000370: 73a4 3cbd 3b77 6f3d 622f abbd 5a47 27bd
00000380: 9f04 20bd fd2e 30bd d85d 1f3d 8f06 dfbc
00000390: c4e1 833d 79a2 993d 4634 85bc c4f8 06bd
000003a0: 72b1 753d 1a89 96bd 43c3 873c 1b5d 7c3d
000003b0: 3c16 8abd cbca 453d a895 a5bd ee24 283d
000003c0: 3407 b1bd 49e4 a13b 5151 36bd 4656 a9bd
000003d0: 7318 a4bd 8f01 84bd b2ba a4bd 49ba 4aba
000003e0: 2010 3bbd 7384 3bbd 1fee 97bd 67a7 903d
000003f0: abe0 043c c513 6c3d c73c 753c b4bd 823c
