final-pipeline/master/models/mfcc-run2.tflite (tflite, 104584 bytes, 10 tensors)

deep_learning_classifier/output/BiasAdd/ReadVariableOp/resource f4 [5]
000000 1e 08 20 3c c8 31 b6 bc b4 59 65 ba f5 8c 1d 3d
       0.00976756 -0.022240534 -0.00087490235 0.038464505
000010 c3 62 d5 bc
       -0.02604807

deep_learning_classifier/dense-2/BiasAdd/ReadVariableOp/resource f4 [32]
000000 fc df 85 3b 0f 62 24 bb ea 1b 3a bb b7 44 8e bb
       0.004085539 -0.0025082862 -0.0028397986 -0.0043416875
000010 5b d5 3c bc b2 ac 2a bb 27 e7 ec 3c 35 1c 01 bb
       -0.011525477 -0.0026042876 0.028918816 -0.001970065
000020 32 89 ab 3b 06 6f 1b bc f0 78 97 bc 1d f0 91 bc
       0.005234861 -0.009486919 -0.018490285 -0.01781469
000030 ac 46 52 bc 7b 5e 66 ba 63 ec ae 3b d7 73 8f bc
       -0.012834232 -0.00087878824 0.005338238 -0.017511291
000040 7e be c4 bb 3c 9f b6 3b d2 39 b2 bc e0 3a b6 3c
       -0.0060041538 0.0055731814 -0.021756086 0.02224487
000050 8e 43 44 3d e6 11 bb 3c 2f 7d bc ba ba b1 30 bc
       0.047915988 0.022835683 -0.0014380569 -0.010784561
000060 83 c3 04 bc da 9f 73 3c 95 39 95 3c f7 59 14 bc
       -0.008103254 0.014869655 0.018215934 -0.009054652
000070 1d fb 3e 3d 97 9c 88 bc 61 e0 a3 3c dc 89 ff bb
       0.0466262 -0.01667623 0.020004453 -0.0077984165

deep_learning_classifier/dense-1/BiasAdd/ReadVariableOp/resource f4 [64]
000000 68 6e 0f 3d 25 64 f7 3a ae a2 5e bb 51 7c c4 ba
       0.0350174 0.001887445 -0.0033971476 -0.0014990662
000010 e3 d8 e0 bb 0e 04 9a bb 4a 2f 98 ba 96 09 06 bc
       -0.0068617924 -0.0047001904 -0.0011610773 -0.008180996
000020 10 6e 53 bc fd 30 a4 3c ef 63 a4 3b 4b 72 3c 3d
       -0.012904659 0.02004289 0.005016796 0.046007436
000030 53 0f b8 bc 07 74 59 bc 4a 0a 1f bc 9c 12 2a bc
       -0.022468245 -0.013272292 -0.009707043 -0.010380413
000040 41 e6 75 39 65 bf f2 ba 1c 81 1f 3d 00 00 00 00
       0.00023450797 -0.0018520175 0.038941488 0.0
000050 e4 b3 1a 3d 96 79 7a 3c 30 1a 0f bc ed 2f 92 bb
       0.037769213 0.015287777 -0.008734271 -0.0044612796
000060 9b 3b 2c 3d bc 01 4a bc 8b b6 d3 3c 21 05 3a bb
       0.04204903 -0.012329515 0.02584388 -0.0028384405
000070 74 62 2c 3c cd 3d ac 3c ba 09 fb 3c 0e 68 df bb
       0.01052152 0.021025563 0.030644286 -0.006817824
000080 db d3 2f 3c 92 3f 3e 3c 18 53 fd 3b c7 ee 30 3c
       0.010731663 0.011611836 0.007730853 0.010799116
000090 94 91 c6 bb 00 00 00 00 2e a8 84 ba e5 cb 23 3d
       -0.0060598347 0.0 -0.0010120922 0.03998937
0000a0 95 37 ec bb 79 48 50 3b f7 aa 58 3b 49 b9 6f 3c
       -0.0072087743 0.0031781478 0.0033060887 0.014631578
0000b0 74 e0 e1 bb 00 00 00 00 fd 64 a9 3b 02 ef ff 3c
       -0.006893212 0.0 0.0051695094 0.031241897
0000c0 43 cf 77 bc ed f6 dc b8 e7 4a ca bc b6 44 2d 39
       -0.015125099 -0.00010536411 -0.02469392 0.00016524162
0000d0 b8 5a 35 3d 00 00 00 00 09 5d 83 3c 77 a3 e4 b9
       0.04427597 0.0 0.016035574 -0.0004360934
0000e0 c6 7b 7b bc da 08 5c bc b3 bc 9e ba 66 02 87 ba
       -0.015349334 -0.013429845 -0.001211068 -0.0010300397
0000f0 1b 8a 12 3c b3 74 62 3c 40 fc 97 39 7e f1 e1 ba
       0.00894406 0.013821769 0.00028988905 -0.0017238108

deep_learning_classifier/conv2d-2/BiasAdd/ReadVariableOp/resource f4 [64]
000000 9a aa 69 bc 1a 17 e3 3b 44 ea 9c bc 92 df a3 bb
       -0.014261866 0.006930244 -0.019154675 -0.005001017
000010 09 84 fc bb 9f 08 c4 3c af 8c f8 39 a9 6f 02 3c
       -0.0077061695 0.023929892 0.00047407064 0.007961192
000020 b7 5d 18 bb 91 a5 a3 bb 6e 1f 08 bc 48 7d c8 bc
       -0.0023249218 -0.0049941023 -0.008308275 -0.024473801
000030 da 8c 60 bc 95 a9 18 bc ac cc 22 bc 98 47 46 3b
       -0.013705457 -0.009317775 -0.009936493 0.0030255076
000040 fe 7b d0 bb 71 c0 88 3b be 4a a7 bb 5b 80 f7 bb
       -0.0063624373 0.0041733314 -0.0051053455 -0.007553143
000050 00 00 00 00 0b e8 8a 3c 9e 7b 05 bc 29 c7 cf bb
       0.0 0.01695635 -0.008147148 -0.0063408804
000060 ba 94 0d 3d 00 50 a6 3c 56 b0 e7 3c 01 3e 7d bb
       0.034565665 0.020301819 0.028282326 -0.0038641694
000070 ca cd 95 bb a5 e8 05 bb b2 2d 22 bc 1d 21 25 bc
       -0.004571651 -0.0020432856 -0.00989859 -0.010078696
000080 94 cc ab 3c a7 48 7b bc 91 d3 07 bc 3e 15 9e bb
       0.020971574 -0.015337146 -0.008290187 -0.0048243096
000090 ca 84 20 bc d3 97 a2 bb 00 00 00 00 4a 56 83 bb
       -0.009797284 -0.0049619465 0.0 -0.004008089
0000a0 c2 36 1d bc f9 a6 8e bb 15 d1 a1 bb 20 a4 d1 3a
       -0.009595575 -0.004353401 -0.0049382546 0.0015994348
0000b0 cf fd 7b 3c 30 cd de 3c 16 49 94 3c fd 2c b3 bc
       0.015380337 0.02719745 0.018101256 -0.021872038
0000c0 37 7f 1b 3d f9 cd 39 bc 1b 37 73 bc c2 b0 22 bc
       0.03796312 -0.011340612 -0.014844681 -0.009929838
0000d0 fb bd ea bb e9 01 a0 3c 3c 4e bf 3c 96 77 73 bc
       -0.0071637607 0.01953216 0.023352735 -0.0148600545
0000e0 3b 7d a9 3c 85 63 22 3d 8a e8 56 bc 12 58 18 bb
       0.020689597 0.03964569 -0.013116965 -0.0023245853
0000f0 75 33 e5 39 ef a5 de 3c 6b 10 42 bc 58 bf 55 bb
       0.00043716622 0.027178733 -0.011844735 -0.003261527

deep_learning_classifier/conv2d-1/BiasAdd/ReadVariableOp/resource f4 [32]
000000 e7 c1 35 3d 23 68 8b bc 57 69 4e bb ac c1 a8 3c
       0.044374373 -0.01701743 -0.0031495893 0.020600162
000010 4a f6 a9 bc bb ce 3a bb 89 65 04 3d bf 53 98 bc
       -0.020747323 -0.0028504569 0.032323394 -0.01859462
000020 db d6 4e bc 0f bd 9f 3c b8 93 d1 bb 15 7b 82 3c
       -0.012624468 0.01949933 -0.0063957833 0.01592783
000030 37 db e7 bc 22 a6 9c 3b 6b 05 a7 bc f7 03 04 bc
       -0.028302772 0.0047805468 -0.020388326 -0.008057586
000040 19 89 08 3c ac e7 17 bc 0a d3 9c 3c c8 7c 23 3d
       0.008333468 -0.0092715435 0.0191436 0.039913923
000050 e0 a7 b0 3c 6e 44 f9 ba 3a cf ea bc b0 51 82 bb
       0.021564424 -0.0019017586 -0.028663266 -0.003977023
000060 70 1e 1f bd bf c6 63 bc 32 8a b8 bc c6 46 04 bd
       -0.038847387 -0.013902365 -0.022526834 -0.032294057
000070 fc 10 78 bb 67 4e b2 bc 91 d0 04 bd 5d 8d 97 bc
       -0.003785192 -0.0217659 -0.032425467 -0.018500024

deep_learning_classifier/dense-1/MatMul f4 [64, 64]
000000 9c 84 74 3d 8f 5b fe bd 39 63 82 bd 7e e2 57 3e
       0.05969678 -0.12419807 -0.063665815 0.21082494
000010 20 38 13 3c 00 2b 26 3e 13 27 51 be 69 31 cf 3d
       0.008985549 0.1622734 -0.20425062 0.10116846
000020 fe 9f 8f bd 25 e3 bc bd fa bb 1f 3e bf 16 26 be
       -0.07012938 -0.09223012 0.15599051 -0.16219614
000030 ca 6d 5f be 3b 02 d2 bc 45 45 8e be 00 8f 3d be
       -0.21819225 -0.02563583 -0.27787223 -0.18511581
000040 cf a8 09 3e 54 61 6e bd 55 83 2c 3e 21 f8 19 3e
       0.13443302 -0.058198288 0.16846974 0.1503606
000050 70 5f 1a bd 2a 69 be bd 9e e1 a7 3d 23 ea f5 bd
       -0.037688673 -0.09297402 0.0819733 -0.12007549
000060 fd cd 2f 3e 01 05 6c 3e fd 50 14 3e a9 fe f2 bd
       0.17168422 0.23048784 0.1448402 -0.11864979
000070 a8 00 6c be be 28 77 bd 28 5e 25 3e 0a 82 81 bd
       -0.23047125 -0.06034159 0.16149199 -0.06323631
000080 d5 27 28 3e 47 7d 19 be 98 90 f5 bd 63 52 e0 bd
       0.16421445 -0.14989196 -0.1199047 -0.10953214
000090 e3 d0 50 be b8 9f 7b 38 e6 b3 ac 3d dc 18 18 3e
       -0.20392184 5.9991813e-05 0.084327504 0.14853233
0000a0 8a c3 e3 bd 69 91 c5 3d 2b 85 7a bd a0 cd c2 3d
       -0.111212805 0.096468754 -0.061162155 0.09511876
0000b0 d3 a4 c6 3c aa 5c 66 3e 14 ce 2f 3e 83 8b 4c be
       0.024248516 0.22496286 0.17168456 -0.19975094
0000c0 7b 50 63 3e 8d c6 69 3d e0 46 45 be 65 f5 de 3c
       0.2219867 0.05707412 -0.19265318 0.027216623
0000d0 78 f2 04 3d 83 b3 a8 3d 92 d7 48 3e 9d 53 02 bc
       0.0324578 0.08237364 0.19613484 -0.007954505
0000e0 ca 5f 39 3e c7 40 6e bd 10 0c 82 bd 59 4e 34 be
       0.18102947 -0.058167245 -0.06349957 -0.17608012
0000f0 ad 89 80 3e 23 df 28 3e 45 bf 86 be 73 85 c7 bd
       0.25105038 0.1649137 -0.26317802 -0.0974225
000100 0d 21 55 3d 67 3c 10 3e e3 7b 3c 3e e7 ff b1 3d
       0.052033473 0.14085542 0.18406634 0.086913876
000110 74 74 0e 3e 6f 44 cd 3d 85 55 9c bd d7 b2 54 3e
       0.13911611 0.10022818 -0.07633499 0.20771347
000120 bc 22 a9 3d 13 6c 58 be 04 7b fa 3c 19 64 95 3d
       0.08258578 -0.21134977 0.030576237 0.07294483
000130 0c c9 4a be 97 9e 0c be 63 91 5e be cf f0 fc bd
       -0.19803256 -0.13732372 -0.21735148 -0.12350618
000140 c0 4a 06 3e ca e3 4d be 3b b2 27 3e 99 9d a2 3d
       0.13114452 -0.20106426 0.16376583 0.079402156
000150 8b 8f 4a be e8 fe ad bd 2c 5f a6 bd 3e c7 b0 3d
       -0.1978132 -0.08495885 -0.08123621 0.086317524
000160 d1 19 58 3e d0 7a 3e 3e cc ea 73 be 0e 44 84 3d
       0.21103598 0.18601537 -0.23820037 0.06458293
000170 9d 05 43 3e 1f f3 89 3d 08 a3 7d bd 39 ab 90 3d
       0.1904511 0.06735825 -0.061923057 0.07063908
000180 84 5e 3d be 91 b4 36 3e 1a 23 dc bd 37 d8 dd 3d
       -0.18493086 0.17842318 -0.107488826 0.10832255
000190 1b 29 24 3e dd 5b 9f 3d 09 90 36 3e 4c 5d f7 bd
       0.16031305 0.077811934 0.17828383 -0.12078342
0001a0 6a 6f bf bd 21 a4 25 be a0 d7 dd 3d bf c8 35 be
       -0.093474224 -0.16175891 0.10832143 -0.1775236
0001b0 bb 3e 3c be 9e 22 18 3e 28 7c f7 3b 7b 20 19 be
       -0.18383305 0.14856955 0.0075526424 -0.14953797
0001c0 19 3f 21 be 1e 2f 3b 3e 50 ad 87 3b 0c 7c 43 be
       -0.15746726 0.18279693 0.0041405335 -0.19090289
0001d0 00 56 b0 3b e0 bb e2 3c 2f c2 0d 3c c3 d9 22 3e
       0.0053813457 0.027677476 0.008652254 0.15903382
0001e0 9e fb 0e 3d e5 db d5 bd f9 a2 b1 3d c2 9a a4 bd
       0.03490793 -0.10442332 0.08673663 -0.0803733
0001f0 76 44 3f 3e 4d 46 d0 3d 27 41 2b 3d f7 a6 b9 3d
       0.1867846 0.10169659 0.04181018 0.09065049
000200 fc c9 37 bd 81 91 d8 bd 73 44 90 bb 0f dc 15 be
       -0.04487036 -0.10574628 -0.004402691 -0.14634727
000210 ca 1a 0c 3e cf be 7b 3c 12 79 5d bd eb 7d 43 bc
       0.13682094 0.0153653165 -0.05407054 -0.011931877
000220 4d c2 9a 3d 1e 4e 16 3e 17 e8 00 3e e0 23 4f 3e
       0.07556591 0.14678237 0.12588535 0.20228529
000230 eb 9b 91 3d 90 45 bc bd 06 25 40 3e 33 c0 a3 3d
       0.07109817 -0.091929555 0.18764123 0.079956435
000240 40 5f 41 3c 99 e7 10 3e 2a 38 8e 3d 0b 1f 17 3e
       0.0118024945 0.14150847 0.06944306 0.14757936
000250 97 8c 42 3e 8b af 45 be a3 31 1b be 68 20 67 3e
       0.18998943 -0.19305246 -0.15155654 0.22570956
000260 a4 fc 71 be 0f 05 46 3e b1 dd 15 bd 1f 48 35 3e
       -0.23631531 0.19337867 -0.036588375 0.17703293
000270 92 33 2c bd 38 0a 46 bd 4d 53 44 be f5 a0 f5 bd
       -0.04204137 -0.04834959 -0.19172402 -0.11993591
000280 b6 43 c6 bd 12 df cc bc fe 5a 21 bd 79 50 45 be
       -0.096808836 -0.025008712 -0.039393418 -0.19268979
000290 8c 5c 1d 3e ce 69 d7 bd 0e 6e 1c be 6c 52 24 3d
       0.15367335 -0.105182275 -0.15276358 0.040117666
0002a0 5b b9 c9 3b 56 f4 90 bd 47 a7 5b 3c a5 11 55 be
       0.0061561293 -0.070778534 0.013406581 -0.20807512
0002b0 54 28 88 3d 2d 91 94 3d e1 20 a4 3c 0f a0 f0 3d
       0.06648317 0.072542526 0.02003521 0.11749279
0002c0 5b 11 66 be ef 93 2c 3d d6 2e b3 bd 1e 0a 1d 3e
       -0.22467558 0.042133268 -0.087491676 0.1533589
0002d0 ca 33 48 be 03 76 81 bd 3d c3 57 3e 49 18 06 3e
       -0.19551006 -0.06321337 0.21070571 0.13095202
0002e0 8b af 06 bd b4 0c 33 be 01 7a e0 bd 81 5a 7a 3e
       -0.032882255 -0.17485315 -0.109607704 0.24448587
0002f0 fa f1 f9 3d 13 d5 91 bd 31 58 a1 3d 7a 3f 10 3e
       0.122043565 -0.07120719 0.07878149 0.14086714
000300 8b 73 16 be 77 0f 5b 3e 9b 03 43 3e b5 61 9d bd
       -0.14692514 0.21392618 0.19044344 -0.07684652
000310 8b b9 58 3e b7 aa 4f be 29 f2 3c 3e 1b c6 48 3e
       0.21164529 -0.20279966 0.18451752 0.19606821
000320 da 8b 8d 3d 65 b0 26 3d ed 61 96 3d 10 00 c0 3d
       0.0691144 0.040695567 0.073428966 0.09375012
000330 9e 93 19 3d c7 a3 9c bd 1d 9a 2c 3d fb 11 41 3d
       0.037494294 -0.076484255 0.04213916 0.047136288
000340 0d 85 04 be 90 e2 2f be cb dd cc bd a2 fc c6 bd
       -0.1294138 -0.1717627 -0.10003241 -0.09716155
000350 43 f9 22 3e 38 c8 ef bc c4 13 45 be cf ae 40 be
       0.15915398 -0.029270276 -0.19245821 -0.18816684
000360 dc 0f 3b 3e 73 6e 23 3e 3e a1 81 3d b6 b3 4d bd
       0.18267769 0.15960102 0.06329583 -0.050220214
000370 28 30 31 be 75 60 7a bd f1 9d 19 bd e9 66 3f 3e
       -0.17303526 -0.061127145 -0.03750414 0.18691601
000380 05 60 82 bd 5e f4 90 bd dc 22 39 be 3c e6 46 be
       -0.063659705 -0.07077859 -0.18079704 -0.19423765
000390 b2 1e 25 bd a7 7a 06 be 28 e8 76 bd b2 50 5d be
       -0.040312476 -0.13132726 -0.060279995 -0.21612814
0003a0 73 77 f9 3d dc 38 45 3d e4 0b 61 3e 71 8f 41 be
       0.12180986 0.04814993 0.21977192 -0.18902375
0003b0 00 e7 45 3e eb 04 cf bb 52 98 3a 3d c4 1f 27 bc
       0.19326401 -0.006317725 0.04555542 -0.010200445
0003c0 7e dd b0 3d 64 19 1a 3b 80 80 40 bc c7 fe 1e be
       0.08635996 0.002351367 -0.011749387 -0.15526877
0003d0 68 23 d1 bc 86 01 8c bd b0 bc 22 bc e5 ee 5c be
       -0.025529578 -0.06836228 -0.009932682 -0.21575506
0003e0 87 38 1a be 78 93 d1 bd 19 25 17 3e 6e 64 eb bd
       -0.15060626 -0.102332056 0.14760245 -0.11493765
0003f0 70 e9 0c be 01 0b 5d bd 0e 02 29 3e 94 2b f5 3d
       -0.13760924 -0.053965572 0.1650469 0.119712025

deep_learning_classifier/dense-2/MatMul f4 [32, 64]
000000 92 1f 49 be 84 d9 18 3e cd 81 c9 3d ab 10 77 be
       -0.1964095 0.14926726 0.09839211 -0.24127452
000010 bd ec 0f 3d 88 b9 a1 3d c3 fc f7 bd e7 ec b0 bd
       0.03513788 0.078967154 -0.12108757 -0.086389355
000020 c1 d8 88 3e de 44 99 be ab 8a 39 be 8e 15 59 be
       0.2672787 -0.29935354 -0.18119304 -0.21199629
000030 3b 38 52 be e0 1e 37 3e 2b b2 18 be d9 8f 40 3e
       -0.20529263 0.17882872 -0.14911716 0.18804874
000040 f1 36 ca bd 47 69 79 be 98 94 a2 bd 00 66 49 3d
       -0.098737605 -0.24356566 -0.07938498 0.04916954
000050 99 c3 79 3d 25 9f 23 3e b4 94 0e be 4d cd 2b 3e
       0.060977552 0.15978678 -0.13923913 0.16777535
000060 23 02 3f 3e b3 22 f7 bd 6d aa a2 bd ac 6b 40 bd
       0.18653159 -0.12067165 -0.079426624 -0.046977684
000070 4c 58 32 bb 4a 89 6c be d3 9e 87 bd e5 d5 28 bc
       -0.0027213274 -0.23099247 -0.0662209 -0.010304903
000080 bf cb 9e bc f6 f4 8a 3d 89 91 11 be c4 39 5e be
       -0.019384263 0.06785004 -0.14215674 -0.21701723
000090 85 6b ff 3d 70 c6 5a be 35 b4 3c 3e ce 5a ae bc
       0.124716796 -0.2136476 0.18428119 -0.021283533
0000a0 37 f7 4a 3e 4c d6 87 3e f9 69 51 be d6 8c ac 3d
       0.19820867 0.26530683 -0.20450582 0.084253
0000b0 57 8c 90 bd 80 e1 86 bb a7 5b 2a be 71 1c 3d 3d
       -0.07058018 -0.004116237 -0.16636525 0.046169702
0000c0 e4 0d 49 be 2a dc ec 3d e1 e5 d7 bd a1 92 e8 3d
       -0.19634205 0.115654305 -0.10541893 0.11356092
0000d0 41 15 2c 3e 50 f3 de bd 5f 4c 8d 3e cd 5e ee 3d
       0.16804983 -0.10886252 0.2759733 0.116391756
0000e0 e0 6b 38 3e 73 b1 88 3e 26 e2 db bd f4 5b b1 3b
       0.18009901 0.26697883 -0.10736494 0.005412573
0000f0 b7 af f4 3d c5 45 95 bd 9b 0c cd bc 8b fa b5 bd
       0.119475774 -0.07288698 -0.025030425 -0.08885678
000100 f4 81 00 3d 11 c2 cd 3c 15 fc 0b be e2 3d 6b be
       0.031373933 0.025116952 -0.1367038 -0.22972825
000110 6f e1 6e be cc 02 d6 3d 38 fd 73 3e 97 32 a3 3c
       -0.23328184 0.10449752 0.23827064 0.019921584
000120 ad ff 02 be 62 7f 34 be ea 7e 86 3d 4d 54 1f 3e
       -0.12792845 -0.17626718 0.06567176 0.15559502
000130 9b 96 5d 3e d4 80 a2 bc 40 43 40 be f4 e6 4a be
       0.21639483 -0.01983682 -0.18775654 -0.19814664
000140 d3 0a 50 be e5 f4 25 be c8 23 95 bc 48 63 57 be
       -0.20316629 -0.16206701 -0.018205538 -0.21033967
000150 2b 76 73 3e 89 5e 97 bd bc ff 12 be e6 4f 02 be
       0.23775546 -0.07391078 -0.14355367 -0.12725791
000160 cb 56 6e bd 45 de a1 3d 3c 8e 2a be d0 ef 23 3d
       -0.05818824 0.07903723 -0.1665582 0.040023625
000170 c2 88 53 3e 43 c3 2d 3e d6 5e 7c be 87 1b 15 bd
       0.20657638 0.16969018 -0.24645552 -0.036403205
000180 a2 23 25 be 36 a2 a2 3d 21 f9 4a 3e d1 69 17 3e
       -0.16126874 0.079410955 0.19821598 0.1478646
000190 c9 b0 62 3e 30 a6 78 3e ff c5 e6 bd 65 42 c0 bd
       0.2213775 0.24282146 -0.112682335 -0.09387664
0001a0 e3 e4 05 be 93 b3 e5 3d d5 82 1d 3e 79 e0 f1 bd
       -0.13075595 0.11215892 0.1538194 -0.11810393
0001b0 80 99 77 be 5c b2 12 be 6d 84 89 bd f1 19 2e be
       -0.2417965 -0.14325851 -0.06714711 -0.17002083
0001c0 2c 4d 48 3e 6d 78 5a bd 3b d7 54 3d 4e 3a db 3d
       0.19560689 -0.053337503 0.051963072 0.1070448
0001d0 7c be 2b be 24 60 06 be 11 b2 66 be e9 69 9f bc
       -0.16771883 -0.13122612 -0.22528864 -0.019459682
0001e0 8c 71 a7 bd 55 92 38 be c7 29 67 3e 90 e3 c1 bd
       -0.08175954 -0.18024571 0.2257453 -0.09467232
0001f0 c9 a6 f4 3d 5c 51 f6 3c 74 29 c6 3d 53 ca 45 3d
       0.11945874 0.030068092 0.09675875 0.048288655
000200 0b 46 8e be 30 aa d0 bd 96 16 43 3e dc 72 91 bd
       -0.27787814 -0.10188711 0.19051585 -0.07101986
000210 e9 39 d6 3d 60 0c 91 3d fb 70 6f bd fe 6b cb 3d
       0.10460264 0.070824385 -0.058457356 0.09932707
000220 93 e6 8a 3d 1f fe 53 bd a1 bd 2b 3e fd f1 da 3d
       0.0678226 -0.05175602 0.16771556 0.10690687
000230 e5 f2 55 be 21 48 78 3e 85 3d 3b 3e 84 5a 31 be
       -0.20893438 0.24246265 0.18285187 -0.17319685
000240 4c 88 0a 3e 1d 9e 0d be 3b 66 da bd b4 e3 09 be
       0.13528556 -0.13829847 -0.1066403 -0.13465768
000250 3c 55 cc 3d ac 62 e2 bd 61 8c 43 3e f7 e8 b0 3d
       0.09977195 -0.110539764 0.19096519 0.086381845
000260 1e 15 3a be 45 e1 92 3d 70 00 25 3c 9f dd 65 be
       -0.18172118 0.07171873 0.010070905 -0.22447823
000270 b5 34 48 be ae cc 3a be 38 0f e1 3d 8e 4a 25 3e
       -0.19551356 -0.18242142 0.10989231 0.16141722
000280 96 b2 87 bd 31 1f 80 bc 6d c4 5f 3e 4c d3 4f 3d
       -0.066258594 -0.015639873 0.21852274 0.050738618
000290 f1 2f a3 3e a4 3b 25 be 90 15 5f be 5c 64 06 be
       0.31872514 -0.16136032 -0.21785569 -0.13124222
0002a0 81 2b 0b 3e 35 ff 9a 3e d8 46 5d bd d9 c3 8d 3d
       0.13590814 0.30272833 -0.05402264 0.069221206
0002b0 33 0d 24 be 88 f1 b8 3d 41 55 55 be ce 00 7f 3c
       -0.1602066 0.090304434 -0.20833303 0.015564157
0002c0 e6 4c 04 3e 9e 7d 96 3d 7c 33 ee 3d b1 d2 00 be
       0.1291996 0.07348178 0.116309136 -0.12580372
0002d0 2e f8 d8 3d d0 4e 57 3d c5 04 76 bd 6f 32 7c 3e
       0.105942115 0.052565396 -0.060063142 0.24628614
0002e0 79 7b 1d 3e 5a f1 f1 bd 5b b5 6e 3e 90 7f a0 be
       0.15379132 -0.11813612 0.23311369 -0.31347322
0002f0 5f 2b 94 3e 45 57 dc 3d a1 75 21 bd 3d 24 0e 3e
       0.2893934 0.10758833 -0.03941882 0.13881011
000300 57 02 25 3d 15 0d e1 3b 1d 43 4a be 46 c8 d3 bd
       0.040285435 0.0068680146 -0.19752164 -0.103409335
000310 07 59 38 3d 32 f8 38 3e c7 d5 87 3d 32 6b 4c 3d
       0.045006778 0.18063429 0.06632572 0.049906917
000320 eb 23 24 3e c7 62 bd bd bf c4 4a 3e f8 62 38 3e
       0.16029327 -0.09247356 0.19801615 0.18006504
000330 b9 15 8e bd 80 75 12 be b1 17 17 3e c6 39 5f be
       -0.06937737 -0.14302635 0.14755131 -0.21799383
000340 25 5c 5d bd e6 83 62 be 6d ad 22 be 60 62 43 bd
       -0.054042954 -0.22120628 -0.15886469 -0.04770124
000350 9e 97 77 3c 09 4d 0d be 65 7f 37 3e bf 4b 34 3e
       0.015111832 -0.13798918 0.17919691 0.1760702
000360 9f cc 8b bd 53 bc 0a 3e 63 17 09 bd fa 02 0d be
       -0.06826138 0.13548402 -0.03346957 -0.13770667
000370 27 33 58 3e 54 fa ab 39 1b b0 05 be eb 79 97 3d
       0.21113263 0.0003280217 -0.1305546 0.07396301
000380 af 1f f6 3d 8f df e2 3d 99 ab 54 be d3 49 39 3e
       0.12017762 0.11077797 -0.20768584 0.18094568
000390 78 0f d3 bd 74 87 76 be 6a 5e 22 3e 2a 5e 57 be
       -0.10305685 -0.24075109 0.15856329 -0.21032014
0003a0 a3 34 fc 3d 1a bc e6 3c 93 fa 3c be 51 b6 3c be
       0.12314727 0.028165866 -0.18454961 -0.18428923
0003b0 04 a1 77 3d c8 09 fa 3d 42 53 a6 ba f7 9d 7d 3e
       0.06045629 0.12208897 -0.0012689608 0.2476729
0003c0 4b 45 f2 bd 5c 9c c5 bc 0d 4b 6f bd 7d dc 79 3d
       -0.11829623 -0.02412241 -0.058421183 0.06100129
0003d0 46 fd 37 3d 8c 69 2e be 1d b0 f1 bb 72 81 2e be
       0.044919275 -0.1703245 -0.0073757307 -0.17041567
0003e0 f8 b3 78 bd 4a 28 12 3e fa 06 4e be d9 8b 2e be
       -0.060718507 0.14273182 -0.20119849 -0.17045535
0003f0 67 fd 43 bc cd f9 29 be 54 e0 a7 bd 53 31 29 3d
       -0.011962271 -0.16599198 -0.08197084 0.041306805

deep_learning_classifier/output/MatMul f4 [5, 32]
000000 24 31 0b be 57 50 80 3e 36 f4 cf be 4b 26 4f 3e
       -0.13592964 0.25061294 -0.40616006 0.20229451
000010 c1 91 14 be 82 50 c8 3d d8 cd c8 be 99 76 1b 3c
       -0.14508726 0.09780981 -0.39219546 0.009488725
000020 b1 99 8f 3e 68 4e b1 3e 8a fe b1 3c e9 86 d8 bd
       0.28046945 0.34630132 0.021727819 -0.10572607
000030 ea ab c7 be 0d 07 7e 3d 4e ea 98 3e 3a cc 7f be
       -0.38998348 0.062018443 0.2986626 -0.2498025
000040 a6 8f 06 be dc 2d 38 3e f6 ea 2f be 46 4c 9e 3e
       -0.13140735 0.17986244 -0.17179474 0.30917567
000050 b0 9e c2 bd 58 eb d0 3e 13 f2 af 3e 81 88 b0 3c
       -0.095029235 0.40804553 0.34364375 0.021549465
000060 9e 43 b3 bd 0c cc ff be 8a 03 9e 3e 5f e2 13 3c
       -0.08753131 -0.49960363 0.30862075 0.009026139
000070 04 63 8d 3d fc 10 a6 be 67 ce 81 be 09 bd b3 3c
       0.06903651 -0.32434833 -0.25352785 0.021940725
000080 39 67 38 3e e7 a5 3b bc d5 4c cf 3e da d0 a8 be
       0.18008126 -0.011453128 0.40488306 -0.3297184
000090 76 2f 67 bd b4 fb 1a 3d b1 c7 99 bb 5b 39 ab be
       -0.056441747 0.0378377 -0.0046929945 -0.33442196
0000a0 00 3c a8 be 28 52 84 3e b5 1d b6 3e 05 47 b6 3e
       -0.32858276 0.2584393 0.3556954 0.3560106
0000b0 c1 3e 75 3d c4 96 9d be f8 79 d0 bd e5 8a 0e 3e
       0.0598743 -0.30779088 -0.10179514 0.13920172
0000c0 6d f2 4f be 62 cf bf bc 2d d4 20 be 56 93 48 3d
       -0.20307322 -0.023414318 -0.15705939 0.048968635
0000d0 52 8c 54 be 55 a0 a0 3d 54 90 df bd 35 83 a6 be
       -0.20756653 0.07843081 -0.109162 -0.32521978
0000e0 5a 0b a2 be 96 6f 24 be 46 37 92 be c4 4b 8c 3e
       -0.31649286 -0.16058192 -0.28557795 0.27401555
0000f0 60 48 8c be 0a af 0b 3e ab b7 cc bc 53 ef a8 be
       -0.27398968 0.13640991 -0.024989923 -0.3299509
000100 00 e3 4a 3e e2 9f 5c 3e d3 f8 96 3d e4 ee be 3e
       0.19813156 0.21545365 0.07371678 0.37291634
000110 9e a4 d7 bd 29 6e b8 be 9b 41 d1 be 64 85 39 be
       -0.10529445 -0.36021546 -0.40870366 -0.1811729
000120 0d b0 b7 3d f0 57 cd 3e 69 86 bf be 57 ec 6b 3e
       0.08969126 0.40106153 -0.37407234 0.23039375
000130 da 26 5b 3e cf 7f fd ba 78 df 64 3e b7 d0 3a 3e
       0.2140154 -0.0019340458 0.22350872 0.18243681
000140 37 c5 20 bd 88 c9 58 3d 91 d9 f1 bd 81 29 6a 3e
       -0.03925058 0.05292657 -0.118090756 0.22867395
000150 95 62 95 be f0 a6 e6 be e2 63 aa 3b 82 a8 8c bd
       -0.29176775 -0.45049238 0.0051998952 -0.06868078
000160 99 df a6 bd 1a a3 77 3c f3 f0 97 3e f3 1b c8 3d
       -0.081481166 0.01511457 0.29676017 0.09770956
000170 fb 48 07 bd db b4 69 3e e6 64 05 3e 6a 28 ad 3e
       -0.033028584 0.22822897 0.13026771 0.33819896
000180 ec c0 b1 be 0a 57 81 be 38 ad 6e be d9 aa b9 3e
       -0.347175 -0.25261718 -0.23308265 0.3626316
000190 f9 a6 ff bd a9 aa fb be fe 4b 1c 3d b4 72 d6 3d
       -0.124830194 -0.4915364 0.03815841 0.10471097
0001a0 fd ec cf be 04 a5 bd be cb 0a a4 be c8 8c 45 bd
       -0.40610495 -0.3703996 -0.32039484 -0.048229963
0001b0 42 e8 a9 bd 74 15 c3 3e 5a 4c 8d bc 06 7f 5a 3d
       -0.08296253 0.38102305 -0.017248321 0.053343795
0001c0 27 ec 64 3e b2 da 4c be 29 6c b5 be 93 82 8f 3e
       0.2235571 -0.200053 -0.35434082 0.28029308
0001d0 8b b7 cb 3e 5b 96 0c 3e ac 1f 17 be 0f 0b 84 3e
       0.3978847 0.13729231 -0.14758176 0.25789687
0001e0 b2 95 29 be 59 ef c6 3e 4b 18 ba 3e d7 4e 39 3d
       -0.1656101 0.38854483 0.3634666 0.045241203
0001f0 5f 16 38 3e ba b7 a5 be 09 fe 16 3e d4 85 55 be
       0.17977284 -0.32366735 0.14745344 -0.20851833
000200 79 96 a9 be 07 cb d0 bd dc e6 97 3e 9f ae 0a bc
       -0.33122614 -0.101949744 0.2966832 -0.0084644845
000210 eb fe ad be 67 46 9d be cf 08 d4 be 57 2b ac 3e
       -0.3398355 -0.30717775 -0.4141297 0.33626816
000220 e1 01 ee 3d 02 20 73 3e da 85 93 be 22 16 86 3d
       0.11621452 0.23742679 -0.28813058 0.0654719
000230 9d 85 b5 3e 71 dc c0 be 56 f5 6b be 28 46 7e 3e
       0.354535 -0.37668183 -0.23042807 0.2483145
000240 b8 84 50 3e bc 68 d7 be d8 ec 84 bd e3 07 aa 3e
       0.20363128 -0.42072093 -0.06490487 0.33209142
000250 0e 01 b9 be cf ff 16 3e d1 1a 0e 3d c8 53 b0 bd
       -0.36133617 0.1474602 0.034693543 -0.0860973
000260 8a 49 a8 3e d8 9f c4 3e 7e c9 c0 be e8 ad 71 be
       0.32868606 0.384032 -0.37653726 -0.23601496
000270 56 2d 15 bc 00 1c ff bd b5 95 de be ed fd c6 3e
       -0.009105047 -0.124565125 -0.43473592 0.38865605

deep_learning_classifier/conv2d-1/Conv2D f4 [32, 3, 3, 1]
000000 c6 c7 23 bd 5b b9 01 be 04 0c 72 bb d0 a3 24 3e
       -0.03998544 -0.12668364 -0.0036933431 0.16078115
000010 67 81 a3 bc 3e aa fb bc 62 46 a8 bc 46 e3 f5 bd
       -0.019959165 -0.030720826 -0.020541374 -0.120062396
000020 5d ac 24 bd 5e 8e 58 3d a5 2c a3 3d 75 5f ec bd
       -0.04020344 0.052870147 0.079675 -0.115416445
000030 d9 b9 9b 3d e6 f8 95 3d 12 67 e7 3c 23 7c c5 bd
       0.07603807 0.07322864 0.02824739 -0.09642818
000040 fa ff f7 bb ff 84 c1 bd 63 f2 a5 bd a8 ee 09 3e
       -0.0075683566 -0.09449195 -0.08102872 0.13469946
000050 8c 5b ef 3d 69 6d 9e 3b 6a cf d7 3d 7c e7 c4 3c
       0.11687383 0.00483482 0.10537608 0.024036162
000060 0b c8 fa 3d 15 d5 bb 3d 64 5e 40 3d 1c 2a 1f 3e
       0.122451864 0.091715015 0.046965018 0.15543407
000070 a3 dd 01 be 87 d9 5c bd a3 f4 d4 bc e5 24 2e bc
       -0.12682204 -0.053918388 -0.025995558 -0.0106289135
000080 aa 1d 41 3c 26 9a 5b bd 00 90 18 be df 21 42 3e
       0.011786858 -0.053613804 -0.14898682 0.18958233
000090 b3 3f a2 3d 35 96 b2 3d be e6 18 bd cb fa 32 be
       0.07922306 0.08720056 -0.037329428 -0.17478482
0000a0 cb 03 d4 bc 2d d3 14 3d 7c da 42 3d b8 8e 1a 3e
       -0.025880715 0.036334205 0.047571644 0.15093505
0000b0 8d d1 17 3e 51 28 3a bd 12 e1 d0 3c 12 3d d5 bd
       0.14826031 -0.045448605 0.025497947 -0.10412039
0000c0 eb 7f 15 be ae 9e 22 be 8c ed 7a bd de fe e7 3d
       -0.14599578 -0.15880844 -0.0612617 0.11327909
0000d0 fd c4 b0 3d 2e 92 d4 bc fe 17 12 bd a1 3a 1f 3e
       0.086313225 -0.02594861 -0.035667412 0.15549709
0000e0 22 6e 68 3c 75 7d bb 3b 78 2d 34 3d a4 e0 aa 3d
       0.014186414 0.0057217428 0.043988675 0.08343628
0000f0 41 b0 e3 bd b0 e1 14 3d b1 c3 ec 3d 8e f0 bb bd
       -0.11117602 0.036348045 0.11560763 -0.091767415
000100 21 27 da bb 04 7b 90 bc 00 d2 fc bd 12 84 2f 3d
       -0.0066574966 -0.017636783 -0.12344742 0.04285056
000110 29 c7 23 be a2 40 28 bd b5 0e 25 be 05 a5 0f be
       -0.15993942 -0.041077264 -0.16118892 -0.14027794
000120 1f ec 4e be 95 b5 e3 bd f8 b9 80 bd 4e 3f f0 bd
       -0.2020726 -0.111186184 -0.06285471 -0.117308244
000130 11 d0 65 3a fa 71 b2 3c a7 b0 9c bd cf 8d 04 3d
       0.0008766661 0.021782864 -0.07650881 0.0323618
000140 27 1e f0 3b 05 84 0c be 54 97 09 3e 45 48 c9 3c
       0.007327813 -0.13722236 0.13436633 0.024570594
000150 61 5c d6 bd 70 29 9e bd 4d fa c1 bd 37 dd 60 be
       -0.10466839 -0.07722747 -0.09471569 -0.21959387
000160 92 f7 34 be bb e8 de bd a0 0a c6 3c a6 e6 0d 3e
       -0.17672566 -0.108842336 0.024174988 0.13857517
000170 95 59 00 3c 4e 2d d6 3d f3 fd c2 3a 3b f5 cf 3d
       0.007833858 0.1045786 0.0014876708 0.10154196
000180 18 47 25 3e 9d 3e cb 3d 5f f0 a3 3d 28 48 3b 3b
       0.16140401 0.09924052 0.080048315 0.0028576944
000190 98 13 14 be 4a 5d 2d be bd 06 de bd c5 33 ff 3d
       -0.144606 -0.16930118 -0.10841129 0.12461046
0001a0 11 ad 4c 3e 50 00 5b 3d 09 41 a0 3d b9 34 e3 ba
       0.19987895 0.053467095 0.078249045 -0.0017334438
0001b0 ca 42 1e 3e 6d 4e fb bb 91 d5 4e bd 31 8f 98 bd
       0.15455166 -0.007669261 -0.05049664 -0.074491866
0001c0 27 22 20 be fc 6c 5b bd b3 b2 14 3e 6f 9b 14 3e
       -0.15638028 -0.053570732 0.14521293 0.14512418
0001d0 94 b3 3d 3d f9 9f 9c 3d 1c e2 d5 bc 2d 68 e4 3c
       0.046313837 0.076477 -0.026108794 0.027881706
0001e0 5c d1 15 3e b6 69 3d 3e 85 4d 69 3d e4 12 16 3e
       0.14630646 0.18497357 0.056958694 0.14655644
0001f0 52 fb b9 3c 54 22 84 bd eb 2b c1 bd 8a 2d e2 3d
       0.022702847 -0.0645186 -0.09432205 0.11043842
000200 56 8f a1 3d ad 61 5f 3c 42 30 ed bc 7c 71 9b ba
       0.07888667 0.013634128 -0.028953675 -0.0011859383
000210 cf b1 c1 3a 83 67 72 3d 63 ec 26 bd 35 2d 9b 3b
       0.0014777723 0.059180748 -0.04075278 0.0047356137
000220 26 0c 0c 3c 9f 28 cc 3d a7 7a 79 bc a1 3b 26 bd
       0.008547818 0.09968685 -0.0152269965 -0.04058421
000230 a0 2e f7 3d 03 f1 9d 3d 88 57 19 3e e6 7e 0f be
       0.1206944 0.07711985 0.14974797 -0.14013252
000240 82 89 20 be ad 89 07 3c 8c 47 9f 3c 3f 10 0a be
       -0.15677455 0.008272571 0.019443296 -0.1348276
000250 dd c3 87 bc ab 16 90 3d 9e c7 35 bd 45 42 02 3d
       -0.016572887 0.070355736 -0.044379823 0.03180148
000260 9d 53 b2 bd e8 2d 78 bd 28 00 80 bd 0e 1f c3 bd
       -0.08707354 -0.060590655 -0.0625003 -0.095274076
000270 b7 55 24 be d8 78 33 be cd e5 67 bd 9b 6d e9 bc
       -0.16048323 -0.17526567 -0.05661564 -0.028494647
000280 0f a9 29 3e c2 6d 1d 3e 18 8b e4 bc 4c 20 89 bd
       0.16568397 0.153739 -0.027898356 -0.06695613
000290 7b 06 21 3e 9b a5 d7 bd 28 a2 1b 3d 0e a2 75 3d
       0.15725128 -0.105296336 0.03799644 0.059969
0002a0 21 42 3a bd 89 3b 4f 3d a0 23 b9 bd 68 19 8d bd
       -0.04547322 0.050593887 -0.09039998 -0.068896115
0002b0 c2 49 aa 3d 49 3d 1b 3e 4a f9 a7 bd 3f b4 71 3d
       0.083148494 0.15160097 -0.08201845 0.059009787
0002c0 35 3b 94 3c a4 e9 52 3e c2 3a b8 3c b3 13 8a 3d
       0.018094638 0.2059694 0.022488955 0.067420386
0002d0 b1 7a 8d 3d 73 0e 73 bd cb d9 f6 bd e3 11 da 3d
       0.06908167 -0.05933995 -0.120532595 0.10647943
0002e0 7e e4 ab 3d 50 36 a7 bd 40 a9 91 bd f1 cb 1d be
       0.08393191 -0.08164656 -0.0711236 -0.15409829
0002f0 00 72 3e ba 2b 16 eb 3d cd 10 e5 3d a7 01 9d 3c
       -0.0007264912 0.114788376 0.11184845 0.019165827
000300 9d 27 dc bd 9b 68 d8 bc fd 1d 69 3e e9 f4 83 bd
       -0.10749743 -0.026417067 0.22765346 -0.06443197
000310 52 71 92 bd 99 1b 15 be 1d 6c 25 3e 60 e9 38 3e
       -0.071505204 -0.14561309 0.16154523 0.18057775
000320 d2 7c 52 3d 15 bd 7e 3c e0 e3 26 bd 87 0e d5 bd
       0.05138857 0.01554801 -0.040744662 -0.104031615
000330 9b 60 b7 3d 85 4b e8 3d 45 65 ae bd d7 91 ec 3d
       0.08953973 0.11342529 -0.085154094 0.11551254
000340 1c 80 6d 3d 3f 8a 6b 3e ac 40 da 3d 8a e5 83 bd
       0.057983503 0.23001955 0.106568664 -0.064402655
000350 26 a2 ba 3d 78 1e 1b be 0a 10 f6 bd 9b 31 39 bb
       0.091129586 -0.15148342 -0.12014778 -0.0028258327
000360 0b 8d 53 be ec f3 0b 3d be ad c3 bc a2 e6 61 bd
       -0.20659272 0.03416817 -0.023886558 -0.05515159
000370 5b 73 5f bd a3 da 32 bd 99 88 d9 bd 97 20 17 3d
       -0.05455337 -0.04366554 -0.10621757 0.036896314
000380 1e 40 62 bd a5 bc dc bc 09 47 0b be 59 da 88 3c
       -0.05523693 -0.026945421 -0.13601317 0.016705679
000390 b7 27 41 3e b4 05 18 3e e7 2c 1b 3e 38 bc 17 be
       0.18862806 0.14845926 0.15153848 -0.14817894
0003a0 f8 7a 1a 3e ca 91 51 3b 04 10 57 3e 69 4e 6d 3d
       0.15085971 0.0031977766 0.21002203 0.057936106
0003b0 e5 58 40 3e fd ec 21 3e 78 36 d5 3c 2e 02 15 3e
       0.1878391 0.1581306 0.02602695 0.14551613
0003c0 e6 67 15 bd 59 ce ab 3d c3 7e 27 bd 45 c2 8f bd
       -0.03647604 0.08388967 -0.040892374 -0.07019476
0003d0 b0 c7 e7 bd 60 b5 80 bd 40 3b d7 bc f5 fe 50 3c
       -0.11317384 -0.062845945 -0.02627337 0.012756099
0003e0 56 86 41 3b eb b0 e7 3d 19 02 41 3d 37 aa 2f 3e
       0.0029529533 0.11313041 0.04712114 0.17154776
0003f0 2c 9b 4d 3d 9c dd bb bc 4b 1e 0c 3e ec d3 22 3d
       0.05019681 -0.02293282 0.13683431 0.039752886

deep_learning_classifier/conv2d-2/Conv2D f4 [64, 3, 3, 32]
000000 60 41 cf 3c fe 1c 80 bc f3 c2 95 3d c8 5d 95 3b
       0.025299728 -0.015638825 0.07312574 0.0045582987
000010 81 b1 ad bd c4 14 57 bd 33 8b b4 3c f2 f1 ad 3b
       -0.08481122 -0.052510038 0.022039032 0.005308383
000020 37 bf 65 bd 69 c2 96 bd d3 e3 45 bd 10 a1 50 bd
       -0.05609056 -0.073612995 -0.048312973 -0.05093485
000030 c4 c7 58 bd 2e 38 87 3d 70 4d 10 bc 68 20 68 3d
       -0.052924886 0.06602512 -0.008807525 0.05667153
000040 2f 2e 62 bd a0 bf d1 bc 1d de 9c 3d e7 f5 45 bd
       -0.055219825 -0.02560407 0.07659552 -0.048330214
000050 11 49 11 bc 63 16 2f bc fa 85 94 bb 27 26 f7 bd
       -0.008867518 -0.01068649 -0.004532573 -0.12067824
000060 c6 b8 9f bd 1a 53 7a bd 8d ac a1 bd f5 82 81 3c
       -0.077989146 -0.061114408 -0.078942396 0.015809515
000070 88 08 9e 3c 25 9f 47 bc 85 6b 9f bd 62 59 a9 bb
       0.019291177 -0.012183939 -0.077841796 -0.005168126
000080 d3 a2 18 bc 85 a8 93 3d 9f ee cf 3c a2 1b 95 bc
       -0.009316164 0.07209877 0.025382338 -0.018201653
000090 2b c6 8a bd ce f4 58 bd 1f 91 0d bd 2c 13 da 3d
       -0.06776079 -0.05296784 -0.034562226 0.10648188
0000a0 29 bf 50 bc eb e9 f6 3c 13 80 d8 3d e9 ed a2 bd
       -0.012740889 0.030140838 0.10571303 -0.07955534
0000b0 89 51 cf 3c ef 2e 9f 3c f0 10 67 bd c8 20 10 bd
       0.025307434 0.01943156 -0.056412637 -0.035187513
0000c0 85 d4 b4 bd 82 b5 74 3d 87 50 e5 bc 12 9c 9e bc
       -0.088295974 0.05974341 -0.0279925 -0.01936153
0000d0 b7 9f 9d bd 40 b1 8b 3d 8c 24 e4 bc 1d ee 20 bd
       -0.07696479 0.06820917 -0.027849458 -0.039289583
0000e0 b5 c9 95 bc 0b 55 7f 3c cd 7b c2 3d 6e 37 36 bd
       -0.018284658 0.015584241 0.094962694 -0.044486456
0000f0 70 f4 7b bd 3c 22 1d bd 93 0d a8 bc 6e 73 1e bc
       -0.06151241 -0.038362727 -0.020514285 -0.009671075
000100 63 7b 9d bc 26 a8 23 3d 4a cf 47 bc 7e bd 72 bd
       -0.019223874 0.03995528 -0.012195418 -0.059262745
000110 40 fa 74 bc 34 ea 91 3d 9e 67 98 bd 2b 9f 21 bd
       -0.014952242 0.07124749 -0.074416384 -0.039458435
000120 4a 2a a7 bd 8b 5c c9 3d ce 94 dd bd f2 28 58 bb
       -0.08162363 0.09832104 -0.10819398 -0.003298339
000130 cf 5f 36 3d 5d cb c4 3a 3d 40 8b bd 4e 40 ce bd
       0.044524964 0.001501422 -0.06799362 -0.10070859
000140 34 2d 07 bc f4 5f 43 3d fd 6d a0 bc 4b b4 1a bd
       -0.008250523 0.04769893 -0.019583696 -0.037769597
000150 bc 86 d7 bc 35 c5 0b 3d 90 ec e9 3c a0 57 03 3d
       -0.026309364 0.03412362 0.028555185 0.032065988
000160 f3 65 b4 3d 7b 98 50 3d fb ad 02 bd a8 9e 88 bd
       0.08808508 0.050926667 -0.031904202 -0.06670886
000170 77 32 0f 3d b9 5e 10 3d c8 82 66 bd c4 67 80 bd
       0.034960236 0.035246585 -0.056277066 -0.06269792
000180 64 e9 1c bd 66 e2 f2 bc 6e 22 cf 3b 72 d6 82 bd
       -0.038308516 -0.02964897 0.006321243 -0.063885584
000190 8d 92 4c 3d 09 e7 83 3c ed e5 1c bb 16 c3 0a bd
       0.04994445 0.016101377 -0.0023940757 -0.033877455
0001a0 e7 eb 85 bd 49 87 a8 bb 34 d3 50 3d 96 84 83 3d
       -0.065391354 -0.0051430804 0.05098267 0.06421773
0001b0 9a 91 2a bd 95 fe 52 3c 45 b9 22 bd 02 19 11 bd
       -0.041642763 0.01287808 -0.039727468 -0.03542424
0001c0 16 aa 34 bd d1 a2 e5 bb d1 80 f6 3b bd ba 5a 3d
       -0.04410752 -0.0070079346 0.0075226803 0.053400744
0001d0 01 2f a3 bd 43 0a af 3b 7e ab 8f bd ba cd 9f 3d
       -0.0796795 0.0053417995 -0.070151314 0.07802911
0001e0 2a a4 56 3d 1a 2d 5b 3d 14 e5 94 3d 82 27 87 3d
       0.052402653 0.05350981 0.07270256 0.065993324
0001f0 c2 48 5e 3d 91 37 86 3c e9 6a 53 bd 3f 4b 48 bd
       0.054268606 0.016383918 -0.05161563 -0.048899885
000200 58 2f 9e 3d bc ee 3c 3d 62 15 b7 3c 1c 2f 9f 3d
       0.07723874 0.046126112 0.022349063 0.07772657
000210 40 46 db 3d c0 68 c6 3c fb 87 99 3d a9 b4 28 bc
       0.107067585 0.02421987 0.07496639 -0.010296979
000220 d7 90 ad bc b4 96 99 bd aa 24 12 bd 0e 93 16 3d
       -0.02118723 -0.074994475 -0.035679497 0.036761336
000230 a0 5e 22 bd 51 96 3f bd cf 2e 8f bb 5c b0 53 bd
       -0.039641023 -0.046774212 -0.0043695937 -0.05168186
000240 60 75 34 bd 6a de 99 3d 30 4a c5 bd 10 81 7a 3d
       -0.04405725 0.07513125 -0.09633291 0.06115824
000250 0f 44 94 3d 0e 3b d0 bd 7b c2 82 bd 93 41 87 3d
       0.07239544 -0.10167514 -0.063847505 0.06604304
000260 29 58 a4 bd 37 bd 30 3b 78 ee 04 3d dc cf 81 3d
       -0.08024628 0.002696825 0.032453984 0.06338474
000270 a3 8f 71 bb 7b 81 6b bd a5 4c b7 3c 2b 70 74 bc
       -0.0036859296 -0.05749653 0.022375414 -0.014919321
000280 2a eb 4f bd a5 a5 66 bd e2 f7 a8 3d 2b ef 0c bd
       -0.05076138 -0.056310315 0.08250405 -0.034407776
000290 3e 55 ac bc fd 31 90 3d 9d 86 65 bd dd a0 14 bd
       -0.02103674 0.070407845 -0.05603658 -0.036286224
0002a0 f7 eb b9 bc c9 e0 3e bd 0c 5a d4 3d df 4a 46 bd
       -0.022695525 -0.04660109 0.103687376 -0.048411246
0002b0 76 b2 16 bd 6e 52 fd 3c 42 cb 21 bd f4 65 35 3d
       -0.036791287 0.030923095 -0.039500482 0.044286683
0002c0 e1 61 79 bd 91 a0 64 3c 9d de 33 3c 61 99 dc 3d
       -0.06088436 0.013954298 0.010978368 0.10771442
0002d0 8c b6 aa bd a0 20 9a 3d 26 30 72 3d b0 b8 2b bc
       -0.08335599 0.07525754 0.05912795 -0.010481045
0002e0 ea 33 35 bd a2 3e 15 bd 78 0e 91 bc 23 b5 74 3d
       -0.044238962 -0.036436684 -0.017707095 0.059743058
0002f0 87 40 d2 3b 11 71 c5 bd 1a 05 6c bc dc 0a 55 3c
       0.0064163837 -0.09640706 -0.014405513 0.013003077
000300 bb 86 26 bd 48 69 4a bc de 7d 7b 3d 50 ca 1b 3d
       -0.040655833 -0.012354203 0.061399333 0.038034737
000310 93 55 26 bc fd 5b 84 bd c8 30 85 bd 90 78 a8 bd
       -0.010152238 -0.06462858 -0.06503445 -0.082261205
000320 8c ef 38 3c a4 76 07 3d dd 0f ba bc 36 67 b3 bc
       0.011287581 0.03307213 -0.022712642 -0.0218998
000330 e5 b0 8b 3c aa 63 68 bd 12 e4 92 bc 61 07 fa 3b
       0.017052123 -0.056735672 -0.017931018 0.007630274
000340 05 58 c3 bc db 2b 53 bd 23 86 07 bd fe 32 19 bd
       -0.023845682 -0.051555496 -0.033086907 -0.037402146
000350 dd 75 e6 3b 60 0d 96 3c ee 1a 6a 3d d4 e8 68 3c
       0.0070330934 0.018316925 0.05715459 0.014215667
000360 cc 76 50 bd dc bb 96 3d eb 6b a2 3d 96 12 94 3c
       -0.050894544 0.0736005 0.0793074 0.018075269
000370 f1 1e aa bc e8 b3 a5 3d 93 e2 d4 3c cc 30 9d bb
       -0.020766707 0.08090955 0.025986945 -0.004797077
000380 f8 05 e6 bc 6e 60 39 bd 9b e5 5f bd cc ac b1 bd
       -0.028079018 -0.04525798 -0.05466233 -0.086755365
000390 e8 d6 31 bd e4 97 14 3b 10 90 61 b9 5a 4a 92 bd
       -0.04341784 0.0022673542 -0.0002151134 -0.07143088
0003a0 3e d9 86 3d f5 95 5b 3d 35 31 a5 bc 46 b1 c0 3c
       0.065844044 0.053609807 -0.020165065 0.02352203
0003b0 b4 f2 c7 bc 47 dc 94 3c 98 6c 9a 3b ac 5f bd bd
       -0.024407722 0.018171443 0.0047126524 -0.092467636
0003c0 96 a5 72 3c 11 90 a8 bd 8e dd 7e bd 1b 76 b5 3d
       0.014809987 -0.082306035 -0.06222301 0.088604175
0003d0 91 70 84 3d 87 6b 1d 3d 2a 3b 94 bb d3 b0 17 3d
       0.06466783 0.038432624 -0.0045236545 0.037033867
0003e0 8c 9c 28 3d ac 38 42 bd 1a 79 b0 3c 13 13 43 3d
       0.04116492 -0.047417328 0.02154212 0.047625612
0003f0 4a cf 01 3d 44 12 d4 bb bf 44 59 bd 87 6e 80 39
       0.031691827 -0.006471904 -0.053044077 0.00024496412
